{
  "nodes": [
    {
      "op": "null", 
      "name": "data", 
      "attrs": {"__dtype__": "0"}, 
      "inputs": []
    }, 
    {
      "op": "null", 
      "name": "conv1_middle_weight", 
      "attrs": {
        "cudnn_tune": "fastest", 
        "kernel": "(1, 7, 7)", 
        "no_bias": "True", 
        "num_filter": "45", 
        "pad": "(0, 3, 3)", 
        "stride": "(1, 2, 2)", 
        "workspace": "512"
      }, 
      "inputs": []
    }, 
    {
      "op": "Convolution", 
      "name": "conv1_middle", 
      "attrs": {
        "cudnn_tune": "fastest", 
        "kernel": "(1, 7, 7)", 
        "no_bias": "True", 
        "num_filter": "45", 
        "pad": "(0, 3, 3)", 
        "stride": "(1, 2, 2)", 
        "workspace": "512"
      }, 
      "inputs": [[0, 0, 0], [1, 0, 0]]
    }, 
    {
      "op": "null", 
      "name": "conv1_middle_spatbn_relu_gamma", 
      "attrs": {
        "eps": "0.001", 
        "fix_gamma": "False", 
        "momentum": "0.9"
      }, 
      "inputs": []
    }, 
    {
      "op": "null", 
      "name": "conv1_middle_spatbn_relu_beta", 
      "attrs": {
        "eps": "0.001", 
        "fix_gamma": "False", 
        "momentum": "0.9"
      }, 
      "inputs": []
    }, 
    {
      "op": "null", 
      "name": "conv1_middle_spatbn_relu_moving_mean", 
      "attrs": {
        "__init__": "[\"zero\", {}]", 
        "eps": "0.001", 
        "fix_gamma": "False", 
        "momentum": "0.9"
      }, 
      "inputs": []
    }, 
    {
      "op": "null", 
      "name": "conv1_middle_spatbn_relu_moving_var", 
      "attrs": {
        "__init__": "[\"one\", {}]", 
        "eps": "0.001", 
        "fix_gamma": "False", 
        "momentum": "0.9"
      }, 
      "inputs": []
    }, 
    {
      "op": "BatchNorm", 
      "name": "conv1_middle_spatbn_relu", 
      "attrs": {
        "eps": "0.001", 
        "fix_gamma": "False", 
        "momentum": "0.9"
      }, 
      "inputs": [[2, 0, 0], [3, 0, 0], [4, 0, 0], [5, 0, 1], [6, 0, 1]]
    }, 
    {
      "op": "Activation", 
      "name": "activation0", 
      "attrs": {"act_type": "relu"}, 
      "inputs": [[7, 0, 0]]
    }, 
    {
      "op": "null", 
      "name": "conv1_weight", 
      "attrs": {
        "cudnn_tune": "fastest", 
        "kernel": "(3, 1, 1)", 
        "no_bias": "True", 
        "num_filter": "64", 
        "pad": "(1, 0, 0)", 
        "stride": "(1, 1, 1)", 
        "workspace": "512"
      }, 
      "inputs": []
    }, 
    {
      "op": "Convolution", 
      "name": "conv1", 
      "attrs": {
        "cudnn_tune": "fastest", 
        "kernel": "(3, 1, 1)", 
        "no_bias": "True", 
        "num_filter": "64", 
        "pad": "(1, 0, 0)", 
        "stride": "(1, 1, 1)", 
        "workspace": "512"
      }, 
      "inputs": [[8, 0, 0], [9, 0, 0]]
    }, 
    {
      "op": "null", 
      "name": "conv1_spatbn_relu_gamma", 
      "attrs": {
        "eps": "0.001", 
        "fix_gamma": "False", 
        "momentum": "0.9"
      }, 
      "inputs": []
    }, 
    {
      "op": "null", 
      "name": "conv1_spatbn_relu_beta", 
      "attrs": {
        "eps": "0.001", 
        "fix_gamma": "False", 
        "momentum": "0.9"
      }, 
      "inputs": []
    }, 
    {
      "op": "null", 
      "name": "conv1_spatbn_relu_moving_mean", 
      "attrs": {
        "__init__": "[\"zero\", {}]", 
        "eps": "0.001", 
        "fix_gamma": "False", 
        "momentum": "0.9"
      }, 
      "inputs": []
    }, 
    {
      "op": "null", 
      "name": "conv1_spatbn_relu_moving_var", 
      "attrs": {
        "__init__": "[\"one\", {}]", 
        "eps": "0.001", 
        "fix_gamma": "False", 
        "momentum": "0.9"
      }, 
      "inputs": []
    }, 
    {
      "op": "BatchNorm", 
      "name": "conv1_spatbn_relu", 
      "attrs": {
        "eps": "0.001", 
        "fix_gamma": "False", 
        "momentum": "0.9"
      }, 
      "inputs": [[10, 0, 0], [11, 0, 0], [12, 0, 0], [13, 0, 1], [14, 0, 1]]
    }, 
    {
      "op": "Activation", 
      "name": "activation1", 
      "attrs": {"act_type": "relu"}, 
      "inputs": [[15, 0, 0]]
    }, 
    {
      "op": "null", 
      "name": "comp_0_conv_expansion_weight", 
      "attrs": {
        "cudnn_tune": "fastest", 
        "kernel": "(3, 1, 1)", 
        "no_bias": "False", 
        "num_filter": "64", 
        "num_group": "1", 
        "pad": "(1, 0, 0)", 
        "stride": "[1, 1, 1]", 
        "workspace": "512"
      }, 
      "inputs": []
    }, 
    {
      "op": "null", 
      "name": "comp_0_conv_expansion_bias", 
      "attrs": {
        "cudnn_tune": "fastest", 
        "kernel": "(3, 1, 1)", 
        "no_bias": "False", 
        "num_filter": "64", 
        "num_group": "1", 
        "pad": "(1, 0, 0)", 
        "stride": "[1, 1, 1]", 
        "workspace": "512"
      }, 
      "inputs": []
    }, 
    {
      "op": "Convolution", 
      "name": "comp_0_conv_expansion", 
      "attrs": {
        "cudnn_tune": "fastest", 
        "kernel": "(3, 1, 1)", 
        "no_bias": "False", 
        "num_filter": "64", 
        "num_group": "1", 
        "pad": "(1, 0, 0)", 
        "stride": "[1, 1, 1]", 
        "workspace": "512"
      }, 
      "inputs": [[16, 0, 0], [17, 0, 0], [18, 0, 0]]
    }, 
    {
      "op": "null", 
      "name": "comp_0_spatbn_expansion_gamma", 
      "attrs": {
        "eps": "0.001", 
        "fix_gamma": "False", 
        "momentum": "0.9"
      }, 
      "inputs": []
    }, 
    {
      "op": "null", 
      "name": "comp_0_spatbn_expansion_beta", 
      "attrs": {
        "eps": "0.001", 
        "fix_gamma": "False", 
        "momentum": "0.9"
      }, 
      "inputs": []
    }, 
    {
      "op": "null", 
      "name": "comp_0_spatbn_expansion_moving_mean", 
      "attrs": {
        "__init__": "[\"zero\", {}]", 
        "eps": "0.001", 
        "fix_gamma": "False", 
        "momentum": "0.9"
      }, 
      "inputs": []
    }, 
    {
      "op": "null", 
      "name": "comp_0_spatbn_expansion_moving_var", 
      "attrs": {
        "__init__": "[\"one\", {}]", 
        "eps": "0.001", 
        "fix_gamma": "False", 
        "momentum": "0.9"
      }, 
      "inputs": []
    }, 
    {
      "op": "BatchNorm", 
      "name": "comp_0_spatbn_expansion", 
      "attrs": {
        "eps": "0.001", 
        "fix_gamma": "False", 
        "momentum": "0.9"
      }, 
      "inputs": [[19, 0, 0], [20, 0, 0], [21, 0, 0], [22, 0, 1], [23, 0, 1]]
    }, 
    {
      "op": "Activation", 
      "name": "activation2", 
      "attrs": {"act_type": "relu"}, 
      "inputs": [[24, 0, 0]]
    }, 
    {
      "op": "null", 
      "name": "comp_0_conv_depth_weight", 
      "attrs": {
        "cudnn_tune": "fastest", 
        "kernel": "(3, 3, 3)", 
        "no_bias": "False", 
        "num_filter": "64", 
        "num_group": "64", 
        "pad": "(1, 1, 1)", 
        "stride": "[1, 1, 1]", 
        "workspace": "512"
      }, 
      "inputs": []
    }, 
    {
      "op": "null", 
      "name": "comp_0_conv_depth_bias", 
      "attrs": {
        "cudnn_tune": "fastest", 
        "kernel": "(3, 3, 3)", 
        "no_bias": "False", 
        "num_filter": "64", 
        "num_group": "64", 
        "pad": "(1, 1, 1)", 
        "stride": "[1, 1, 1]", 
        "workspace": "512"
      }, 
      "inputs": []
    }, 
    {
      "op": "Convolution", 
      "name": "comp_0_conv_depth", 
      "attrs": {
        "cudnn_tune": "fastest", 
        "kernel": "(3, 3, 3)", 
        "no_bias": "False", 
        "num_filter": "64", 
        "num_group": "64", 
        "pad": "(1, 1, 1)", 
        "stride": "[1, 1, 1]", 
        "workspace": "512"
      }, 
      "inputs": [[25, 0, 0], [26, 0, 0], [27, 0, 0]]
    }, 
    {
      "op": "null", 
      "name": "comp_0_spatbn_depth_gamma", 
      "attrs": {
        "eps": "0.001", 
        "fix_gamma": "False", 
        "momentum": "0.9"
      }, 
      "inputs": []
    }, 
    {
      "op": "null", 
      "name": "comp_0_spatbn_depth_beta", 
      "attrs": {
        "eps": "0.001", 
        "fix_gamma": "False", 
        "momentum": "0.9"
      }, 
      "inputs": []
    }, 
    {
      "op": "null", 
      "name": "comp_0_spatbn_depth_moving_mean", 
      "attrs": {
        "__init__": "[\"zero\", {}]", 
        "eps": "0.001", 
        "fix_gamma": "False", 
        "momentum": "0.9"
      }, 
      "inputs": []
    }, 
    {
      "op": "null", 
      "name": "comp_0_spatbn_depth_moving_var", 
      "attrs": {
        "__init__": "[\"one\", {}]", 
        "eps": "0.001", 
        "fix_gamma": "False", 
        "momentum": "0.9"
      }, 
      "inputs": []
    }, 
    {
      "op": "BatchNorm", 
      "name": "comp_0_spatbn_depth", 
      "attrs": {
        "eps": "0.001", 
        "fix_gamma": "False", 
        "momentum": "0.9"
      }, 
      "inputs": [[28, 0, 0], [29, 0, 0], [30, 0, 0], [31, 0, 1], [32, 0, 1]]
    }, 
    {
      "op": "Activation", 
      "name": "activation3", 
      "attrs": {"act_type": "relu"}, 
      "inputs": [[33, 0, 0]]
    }, 
    {
      "op": "null", 
      "name": "comp_0_conv_projection_weight", 
      "attrs": {
        "cudnn_tune": "fastest", 
        "kernel": "(1, 1, 1)", 
        "no_bias": "False", 
        "num_filter": "24", 
        "num_group": "1", 
        "pad": "(0, 0, 0)", 
        "stride": "[1, 1, 1]", 
        "workspace": "512"
      }, 
      "inputs": []
    }, 
    {
      "op": "null", 
      "name": "comp_0_conv_projection_bias", 
      "attrs": {
        "cudnn_tune": "fastest", 
        "kernel": "(1, 1, 1)", 
        "no_bias": "False", 
        "num_filter": "24", 
        "num_group": "1", 
        "pad": "(0, 0, 0)", 
        "stride": "[1, 1, 1]", 
        "workspace": "512"
      }, 
      "inputs": []
    }, 
    {
      "op": "Convolution", 
      "name": "comp_0_conv_projection", 
      "attrs": {
        "cudnn_tune": "fastest", 
        "kernel": "(1, 1, 1)", 
        "no_bias": "False", 
        "num_filter": "24", 
        "num_group": "1", 
        "pad": "(0, 0, 0)", 
        "stride": "[1, 1, 1]", 
        "workspace": "512"
      }, 
      "inputs": [[34, 0, 0], [35, 0, 0], [36, 0, 0]]
    }, 
    {
      "op": "null", 
      "name": "comp_0_spatbn_projection_gamma", 
      "attrs": {
        "eps": "0.001", 
        "fix_gamma": "False", 
        "momentum": "0.9"
      }, 
      "inputs": []
    }, 
    {
      "op": "null", 
      "name": "comp_0_spatbn_projection_beta", 
      "attrs": {
        "eps": "0.001", 
        "fix_gamma": "False", 
        "momentum": "0.9"
      }, 
      "inputs": []
    }, 
    {
      "op": "null", 
      "name": "comp_0_spatbn_projection_moving_mean", 
      "attrs": {
        "__init__": "[\"zero\", {}]", 
        "eps": "0.001", 
        "fix_gamma": "False", 
        "momentum": "0.9"
      }, 
      "inputs": []
    }, 
    {
      "op": "null", 
      "name": "comp_0_spatbn_projection_moving_var", 
      "attrs": {
        "__init__": "[\"one\", {}]", 
        "eps": "0.001", 
        "fix_gamma": "False", 
        "momentum": "0.9"
      }, 
      "inputs": []
    }, 
    {
      "op": "BatchNorm", 
      "name": "comp_0_spatbn_projection", 
      "attrs": {
        "eps": "0.001", 
        "fix_gamma": "False", 
        "momentum": "0.9"
      }, 
      "inputs": [[37, 0, 0], [38, 0, 0], [39, 0, 0], [40, 0, 1], [41, 0, 1]]
    }, 
    {
      "op": "null", 
      "name": "comp_1_conv_expansion_weight", 
      "attrs": {
        "cudnn_tune": "fastest", 
        "kernel": "(3, 1, 1)", 
        "no_bias": "False", 
        "num_filter": "144", 
        "num_group": "1", 
        "pad": "(1, 0, 0)", 
        "stride": "[1, 1, 1]", 
        "workspace": "512"
      }, 
      "inputs": []
    }, 
    {
      "op": "null", 
      "name": "comp_1_conv_expansion_bias", 
      "attrs": {
        "cudnn_tune": "fastest", 
        "kernel": "(3, 1, 1)", 
        "no_bias": "False", 
        "num_filter": "144", 
        "num_group": "1", 
        "pad": "(1, 0, 0)", 
        "stride": "[1, 1, 1]", 
        "workspace": "512"
      }, 
      "inputs": []
    }, 
    {
      "op": "Convolution", 
      "name": "comp_1_conv_expansion", 
      "attrs": {
        "cudnn_tune": "fastest", 
        "kernel": "(3, 1, 1)", 
        "no_bias": "False", 
        "num_filter": "144", 
        "num_group": "1", 
        "pad": "(1, 0, 0)", 
        "stride": "[1, 1, 1]", 
        "workspace": "512"
      }, 
      "inputs": [[42, 0, 0], [43, 0, 0], [44, 0, 0]]
    }, 
    {
      "op": "null", 
      "name": "comp_1_spatbn_expansion_gamma", 
      "attrs": {
        "eps": "0.001", 
        "fix_gamma": "False", 
        "momentum": "0.9"
      }, 
      "inputs": []
    }, 
    {
      "op": "null", 
      "name": "comp_1_spatbn_expansion_beta", 
      "attrs": {
        "eps": "0.001", 
        "fix_gamma": "False", 
        "momentum": "0.9"
      }, 
      "inputs": []
    }, 
    {
      "op": "null", 
      "name": "comp_1_spatbn_expansion_moving_mean", 
      "attrs": {
        "__init__": "[\"zero\", {}]", 
        "eps": "0.001", 
        "fix_gamma": "False", 
        "momentum": "0.9"
      }, 
      "inputs": []
    }, 
    {
      "op": "null", 
      "name": "comp_1_spatbn_expansion_moving_var", 
      "attrs": {
        "__init__": "[\"one\", {}]", 
        "eps": "0.001", 
        "fix_gamma": "False", 
        "momentum": "0.9"
      }, 
      "inputs": []
    }, 
    {
      "op": "BatchNorm", 
      "name": "comp_1_spatbn_expansion", 
      "attrs": {
        "eps": "0.001", 
        "fix_gamma": "False", 
        "momentum": "0.9"
      }, 
      "inputs": [[45, 0, 0], [46, 0, 0], [47, 0, 0], [48, 0, 1], [49, 0, 1]]
    }, 
    {
      "op": "Activation", 
      "name": "activation4", 
      "attrs": {"act_type": "relu"}, 
      "inputs": [[50, 0, 0]]
    }, 
    {
      "op": "null", 
      "name": "comp_1_conv_depth_weight", 
      "attrs": {
        "cudnn_tune": "fastest", 
        "kernel": "(3, 3, 3)", 
        "no_bias": "False", 
        "num_filter": "144", 
        "num_group": "144", 
        "pad": "(1, 1, 1)", 
        "stride": "[1, 1, 1]", 
        "workspace": "512"
      }, 
      "inputs": []
    }, 
    {
      "op": "null", 
      "name": "comp_1_conv_depth_bias", 
      "attrs": {
        "cudnn_tune": "fastest", 
        "kernel": "(3, 3, 3)", 
        "no_bias": "False", 
        "num_filter": "144", 
        "num_group": "144", 
        "pad": "(1, 1, 1)", 
        "stride": "[1, 1, 1]", 
        "workspace": "512"
      }, 
      "inputs": []
    }, 
    {
      "op": "Convolution", 
      "name": "comp_1_conv_depth", 
      "attrs": {
        "cudnn_tune": "fastest", 
        "kernel": "(3, 3, 3)", 
        "no_bias": "False", 
        "num_filter": "144", 
        "num_group": "144", 
        "pad": "(1, 1, 1)", 
        "stride": "[1, 1, 1]", 
        "workspace": "512"
      }, 
      "inputs": [[51, 0, 0], [52, 0, 0], [53, 0, 0]]
    }, 
    {
      "op": "null", 
      "name": "comp_1_spatbn_depth_gamma", 
      "attrs": {
        "eps": "0.001", 
        "fix_gamma": "False", 
        "momentum": "0.9"
      }, 
      "inputs": []
    }, 
    {
      "op": "null", 
      "name": "comp_1_spatbn_depth_beta", 
      "attrs": {
        "eps": "0.001", 
        "fix_gamma": "False", 
        "momentum": "0.9"
      }, 
      "inputs": []
    }, 
    {
      "op": "null", 
      "name": "comp_1_spatbn_depth_moving_mean", 
      "attrs": {
        "__init__": "[\"zero\", {}]", 
        "eps": "0.001", 
        "fix_gamma": "False", 
        "momentum": "0.9"
      }, 
      "inputs": []
    }, 
    {
      "op": "null", 
      "name": "comp_1_spatbn_depth_moving_var", 
      "attrs": {
        "__init__": "[\"one\", {}]", 
        "eps": "0.001", 
        "fix_gamma": "False", 
        "momentum": "0.9"
      }, 
      "inputs": []
    }, 
    {
      "op": "BatchNorm", 
      "name": "comp_1_spatbn_depth", 
      "attrs": {
        "eps": "0.001", 
        "fix_gamma": "False", 
        "momentum": "0.9"
      }, 
      "inputs": [[54, 0, 0], [55, 0, 0], [56, 0, 0], [57, 0, 1], [58, 0, 1]]
    }, 
    {
      "op": "Activation", 
      "name": "activation5", 
      "attrs": {"act_type": "relu"}, 
      "inputs": [[59, 0, 0]]
    }, 
    {
      "op": "null", 
      "name": "comp_1_conv_projection_weight", 
      "attrs": {
        "cudnn_tune": "fastest", 
        "kernel": "(1, 1, 1)", 
        "no_bias": "False", 
        "num_filter": "24", 
        "num_group": "1", 
        "pad": "(0, 0, 0)", 
        "stride": "[1, 1, 1]", 
        "workspace": "512"
      }, 
      "inputs": []
    }, 
    {
      "op": "null", 
      "name": "comp_1_conv_projection_bias", 
      "attrs": {
        "cudnn_tune": "fastest", 
        "kernel": "(1, 1, 1)", 
        "no_bias": "False", 
        "num_filter": "24", 
        "num_group": "1", 
        "pad": "(0, 0, 0)", 
        "stride": "[1, 1, 1]", 
        "workspace": "512"
      }, 
      "inputs": []
    }, 
    {
      "op": "Convolution", 
      "name": "comp_1_conv_projection", 
      "attrs": {
        "cudnn_tune": "fastest", 
        "kernel": "(1, 1, 1)", 
        "no_bias": "False", 
        "num_filter": "24", 
        "num_group": "1", 
        "pad": "(0, 0, 0)", 
        "stride": "[1, 1, 1]", 
        "workspace": "512"
      }, 
      "inputs": [[60, 0, 0], [61, 0, 0], [62, 0, 0]]
    }, 
    {
      "op": "null", 
      "name": "comp_1_spatbn_projection_gamma", 
      "attrs": {
        "eps": "0.001", 
        "fix_gamma": "False", 
        "momentum": "0.9"
      }, 
      "inputs": []
    }, 
    {
      "op": "null", 
      "name": "comp_1_spatbn_projection_beta", 
      "attrs": {
        "eps": "0.001", 
        "fix_gamma": "False", 
        "momentum": "0.9"
      }, 
      "inputs": []
    }, 
    {
      "op": "null", 
      "name": "comp_1_spatbn_projection_moving_mean", 
      "attrs": {
        "__init__": "[\"zero\", {}]", 
        "eps": "0.001", 
        "fix_gamma": "False", 
        "momentum": "0.9"
      }, 
      "inputs": []
    }, 
    {
      "op": "null", 
      "name": "comp_1_spatbn_projection_moving_var", 
      "attrs": {
        "__init__": "[\"one\", {}]", 
        "eps": "0.001", 
        "fix_gamma": "False", 
        "momentum": "0.9"
      }, 
      "inputs": []
    }, 
    {
      "op": "BatchNorm", 
      "name": "comp_1_spatbn_projection", 
      "attrs": {
        "eps": "0.001", 
        "fix_gamma": "False", 
        "momentum": "0.9"
      }, 
      "inputs": [[63, 0, 0], [64, 0, 0], [65, 0, 0], [66, 0, 1], [67, 0, 1]]
    }, 
    {
      "op": "elemwise_add", 
      "name": "_plus0", 
      "inputs": [[68, 0, 0], [42, 0, 0]]
    }, 
    {
      "op": "null", 
      "name": "comp_2_conv_expansion_weight", 
      "attrs": {
        "cudnn_tune": "fastest", 
        "kernel": "(3, 1, 1)", 
        "no_bias": "False", 
        "num_filter": "144", 
        "num_group": "1", 
        "pad": "(1, 0, 0)", 
        "stride": "[1, 1, 1]", 
        "workspace": "512"
      }, 
      "inputs": []
    }, 
    {
      "op": "null", 
      "name": "comp_2_conv_expansion_bias", 
      "attrs": {
        "cudnn_tune": "fastest", 
        "kernel": "(3, 1, 1)", 
        "no_bias": "False", 
        "num_filter": "144", 
        "num_group": "1", 
        "pad": "(1, 0, 0)", 
        "stride": "[1, 1, 1]", 
        "workspace": "512"
      }, 
      "inputs": []
    }, 
    {
      "op": "Convolution", 
      "name": "comp_2_conv_expansion", 
      "attrs": {
        "cudnn_tune": "fastest", 
        "kernel": "(3, 1, 1)", 
        "no_bias": "False", 
        "num_filter": "144", 
        "num_group": "1", 
        "pad": "(1, 0, 0)", 
        "stride": "[1, 1, 1]", 
        "workspace": "512"
      }, 
      "inputs": [[69, 0, 0], [70, 0, 0], [71, 0, 0]]
    }, 
    {
      "op": "null", 
      "name": "comp_2_spatbn_expansion_gamma", 
      "attrs": {
        "eps": "0.001", 
        "fix_gamma": "False", 
        "momentum": "0.9"
      }, 
      "inputs": []
    }, 
    {
      "op": "null", 
      "name": "comp_2_spatbn_expansion_beta", 
      "attrs": {
        "eps": "0.001", 
        "fix_gamma": "False", 
        "momentum": "0.9"
      }, 
      "inputs": []
    }, 
    {
      "op": "null", 
      "name": "comp_2_spatbn_expansion_moving_mean", 
      "attrs": {
        "__init__": "[\"zero\", {}]", 
        "eps": "0.001", 
        "fix_gamma": "False", 
        "momentum": "0.9"
      }, 
      "inputs": []
    }, 
    {
      "op": "null", 
      "name": "comp_2_spatbn_expansion_moving_var", 
      "attrs": {
        "__init__": "[\"one\", {}]", 
        "eps": "0.001", 
        "fix_gamma": "False", 
        "momentum": "0.9"
      }, 
      "inputs": []
    }, 
    {
      "op": "BatchNorm", 
      "name": "comp_2_spatbn_expansion", 
      "attrs": {
        "eps": "0.001", 
        "fix_gamma": "False", 
        "momentum": "0.9"
      }, 
      "inputs": [[72, 0, 0], [73, 0, 0], [74, 0, 0], [75, 0, 1], [76, 0, 1]]
    }, 
    {
      "op": "Activation", 
      "name": "activation6", 
      "attrs": {"act_type": "relu"}, 
      "inputs": [[77, 0, 0]]
    }, 
    {
      "op": "null", 
      "name": "comp_2_conv_depth_weight", 
      "attrs": {
        "cudnn_tune": "fastest", 
        "kernel": "(3, 3, 3)", 
        "no_bias": "False", 
        "num_filter": "144", 
        "num_group": "144", 
        "pad": "(1, 1, 1)", 
        "stride": "[1, 1, 1]", 
        "workspace": "512"
      }, 
      "inputs": []
    }, 
    {
      "op": "null", 
      "name": "comp_2_conv_depth_bias", 
      "attrs": {
        "cudnn_tune": "fastest", 
        "kernel": "(3, 3, 3)", 
        "no_bias": "False", 
        "num_filter": "144", 
        "num_group": "144", 
        "pad": "(1, 1, 1)", 
        "stride": "[1, 1, 1]", 
        "workspace": "512"
      }, 
      "inputs": []
    }, 
    {
      "op": "Convolution", 
      "name": "comp_2_conv_depth", 
      "attrs": {
        "cudnn_tune": "fastest", 
        "kernel": "(3, 3, 3)", 
        "no_bias": "False", 
        "num_filter": "144", 
        "num_group": "144", 
        "pad": "(1, 1, 1)", 
        "stride": "[1, 1, 1]", 
        "workspace": "512"
      }, 
      "inputs": [[78, 0, 0], [79, 0, 0], [80, 0, 0]]
    }, 
    {
      "op": "null", 
      "name": "comp_2_spatbn_depth_gamma", 
      "attrs": {
        "eps": "0.001", 
        "fix_gamma": "False", 
        "momentum": "0.9"
      }, 
      "inputs": []
    }, 
    {
      "op": "null", 
      "name": "comp_2_spatbn_depth_beta", 
      "attrs": {
        "eps": "0.001", 
        "fix_gamma": "False", 
        "momentum": "0.9"
      }, 
      "inputs": []
    }, 
    {
      "op": "null", 
      "name": "comp_2_spatbn_depth_moving_mean", 
      "attrs": {
        "__init__": "[\"zero\", {}]", 
        "eps": "0.001", 
        "fix_gamma": "False", 
        "momentum": "0.9"
      }, 
      "inputs": []
    }, 
    {
      "op": "null", 
      "name": "comp_2_spatbn_depth_moving_var", 
      "attrs": {
        "__init__": "[\"one\", {}]", 
        "eps": "0.001", 
        "fix_gamma": "False", 
        "momentum": "0.9"
      }, 
      "inputs": []
    }, 
    {
      "op": "BatchNorm", 
      "name": "comp_2_spatbn_depth", 
      "attrs": {
        "eps": "0.001", 
        "fix_gamma": "False", 
        "momentum": "0.9"
      }, 
      "inputs": [[81, 0, 0], [82, 0, 0], [83, 0, 0], [84, 0, 1], [85, 0, 1]]
    }, 
    {
      "op": "Activation", 
      "name": "activation7", 
      "attrs": {"act_type": "relu"}, 
      "inputs": [[86, 0, 0]]
    }, 
    {
      "op": "null", 
      "name": "comp_2_conv_projection_weight", 
      "attrs": {
        "cudnn_tune": "fastest", 
        "kernel": "(1, 1, 1)", 
        "no_bias": "False", 
        "num_filter": "24", 
        "num_group": "1", 
        "pad": "(0, 0, 0)", 
        "stride": "[1, 1, 1]", 
        "workspace": "512"
      }, 
      "inputs": []
    }, 
    {
      "op": "null", 
      "name": "comp_2_conv_projection_bias", 
      "attrs": {
        "cudnn_tune": "fastest", 
        "kernel": "(1, 1, 1)", 
        "no_bias": "False", 
        "num_filter": "24", 
        "num_group": "1", 
        "pad": "(0, 0, 0)", 
        "stride": "[1, 1, 1]", 
        "workspace": "512"
      }, 
      "inputs": []
    }, 
    {
      "op": "Convolution", 
      "name": "comp_2_conv_projection", 
      "attrs": {
        "cudnn_tune": "fastest", 
        "kernel": "(1, 1, 1)", 
        "no_bias": "False", 
        "num_filter": "24", 
        "num_group": "1", 
        "pad": "(0, 0, 0)", 
        "stride": "[1, 1, 1]", 
        "workspace": "512"
      }, 
      "inputs": [[87, 0, 0], [88, 0, 0], [89, 0, 0]]
    }, 
    {
      "op": "null", 
      "name": "comp_2_spatbn_projection_gamma", 
      "attrs": {
        "eps": "0.001", 
        "fix_gamma": "False", 
        "momentum": "0.9"
      }, 
      "inputs": []
    }, 
    {
      "op": "null", 
      "name": "comp_2_spatbn_projection_beta", 
      "attrs": {
        "eps": "0.001", 
        "fix_gamma": "False", 
        "momentum": "0.9"
      }, 
      "inputs": []
    }, 
    {
      "op": "null", 
      "name": "comp_2_spatbn_projection_moving_mean", 
      "attrs": {
        "__init__": "[\"zero\", {}]", 
        "eps": "0.001", 
        "fix_gamma": "False", 
        "momentum": "0.9"
      }, 
      "inputs": []
    }, 
    {
      "op": "null", 
      "name": "comp_2_spatbn_projection_moving_var", 
      "attrs": {
        "__init__": "[\"one\", {}]", 
        "eps": "0.001", 
        "fix_gamma": "False", 
        "momentum": "0.9"
      }, 
      "inputs": []
    }, 
    {
      "op": "BatchNorm", 
      "name": "comp_2_spatbn_projection", 
      "attrs": {
        "eps": "0.001", 
        "fix_gamma": "False", 
        "momentum": "0.9"
      }, 
      "inputs": [[90, 0, 0], [91, 0, 0], [92, 0, 0], [93, 0, 1], [94, 0, 1]]
    }, 
    {
      "op": "elemwise_add", 
      "name": "_plus1", 
      "inputs": [[95, 0, 0], [69, 0, 0]]
    }, 
    {
      "op": "null", 
      "name": "comp_3_conv_expansion_weight", 
      "attrs": {
        "cudnn_tune": "fastest", 
        "kernel": "(3, 1, 1)", 
        "no_bias": "False", 
        "num_filter": "144", 
        "num_group": "1", 
        "pad": "(1, 0, 0)", 
        "stride": "[1, 1, 1]", 
        "workspace": "512"
      }, 
      "inputs": []
    }, 
    {
      "op": "null", 
      "name": "comp_3_conv_expansion_bias", 
      "attrs": {
        "cudnn_tune": "fastest", 
        "kernel": "(3, 1, 1)", 
        "no_bias": "False", 
        "num_filter": "144", 
        "num_group": "1", 
        "pad": "(1, 0, 0)", 
        "stride": "[1, 1, 1]", 
        "workspace": "512"
      }, 
      "inputs": []
    }, 
    {
      "op": "Convolution", 
      "name": "comp_3_conv_expansion", 
      "attrs": {
        "cudnn_tune": "fastest", 
        "kernel": "(3, 1, 1)", 
        "no_bias": "False", 
        "num_filter": "144", 
        "num_group": "1", 
        "pad": "(1, 0, 0)", 
        "stride": "[1, 1, 1]", 
        "workspace": "512"
      }, 
      "inputs": [[96, 0, 0], [97, 0, 0], [98, 0, 0]]
    }, 
    {
      "op": "null", 
      "name": "comp_3_spatbn_expansion_gamma", 
      "attrs": {
        "eps": "0.001", 
        "fix_gamma": "False", 
        "momentum": "0.9"
      }, 
      "inputs": []
    }, 
    {
      "op": "null", 
      "name": "comp_3_spatbn_expansion_beta", 
      "attrs": {
        "eps": "0.001", 
        "fix_gamma": "False", 
        "momentum": "0.9"
      }, 
      "inputs": []
    }, 
    {
      "op": "null", 
      "name": "comp_3_spatbn_expansion_moving_mean", 
      "attrs": {
        "__init__": "[\"zero\", {}]", 
        "eps": "0.001", 
        "fix_gamma": "False", 
        "momentum": "0.9"
      }, 
      "inputs": []
    }, 
    {
      "op": "null", 
      "name": "comp_3_spatbn_expansion_moving_var", 
      "attrs": {
        "__init__": "[\"one\", {}]", 
        "eps": "0.001", 
        "fix_gamma": "False", 
        "momentum": "0.9"
      }, 
      "inputs": []
    }, 
    {
      "op": "BatchNorm", 
      "name": "comp_3_spatbn_expansion", 
      "attrs": {
        "eps": "0.001", 
        "fix_gamma": "False", 
        "momentum": "0.9"
      }, 
      "inputs": [[99, 0, 0], [100, 0, 0], [101, 0, 0], [102, 0, 1], [103, 0, 1]]
    }, 
    {
      "op": "Activation", 
      "name": "activation8", 
      "attrs": {"act_type": "relu"}, 
      "inputs": [[104, 0, 0]]
    }, 
    {
      "op": "null", 
      "name": "comp_3_conv_depth_weight", 
      "attrs": {
        "cudnn_tune": "fastest", 
        "kernel": "(3, 3, 3)", 
        "no_bias": "False", 
        "num_filter": "144", 
        "num_group": "144", 
        "pad": "(1, 1, 1)", 
        "stride": "[1, 1, 1]", 
        "workspace": "512"
      }, 
      "inputs": []
    }, 
    {
      "op": "null", 
      "name": "comp_3_conv_depth_bias", 
      "attrs": {
        "cudnn_tune": "fastest", 
        "kernel": "(3, 3, 3)", 
        "no_bias": "False", 
        "num_filter": "144", 
        "num_group": "144", 
        "pad": "(1, 1, 1)", 
        "stride": "[1, 1, 1]", 
        "workspace": "512"
      }, 
      "inputs": []
    }, 
    {
      "op": "Convolution", 
      "name": "comp_3_conv_depth", 
      "attrs": {
        "cudnn_tune": "fastest", 
        "kernel": "(3, 3, 3)", 
        "no_bias": "False", 
        "num_filter": "144", 
        "num_group": "144", 
        "pad": "(1, 1, 1)", 
        "stride": "[1, 1, 1]", 
        "workspace": "512"
      }, 
      "inputs": [[105, 0, 0], [106, 0, 0], [107, 0, 0]]
    }, 
    {
      "op": "null", 
      "name": "comp_3_spatbn_depth_gamma", 
      "attrs": {
        "eps": "0.001", 
        "fix_gamma": "False", 
        "momentum": "0.9"
      }, 
      "inputs": []
    }, 
    {
      "op": "null", 
      "name": "comp_3_spatbn_depth_beta", 
      "attrs": {
        "eps": "0.001", 
        "fix_gamma": "False", 
        "momentum": "0.9"
      }, 
      "inputs": []
    }, 
    {
      "op": "null", 
      "name": "comp_3_spatbn_depth_moving_mean", 
      "attrs": {
        "__init__": "[\"zero\", {}]", 
        "eps": "0.001", 
        "fix_gamma": "False", 
        "momentum": "0.9"
      }, 
      "inputs": []
    }, 
    {
      "op": "null", 
      "name": "comp_3_spatbn_depth_moving_var", 
      "attrs": {
        "__init__": "[\"one\", {}]", 
        "eps": "0.001", 
        "fix_gamma": "False", 
        "momentum": "0.9"
      }, 
      "inputs": []
    }, 
    {
      "op": "BatchNorm", 
      "name": "comp_3_spatbn_depth", 
      "attrs": {
        "eps": "0.001", 
        "fix_gamma": "False", 
        "momentum": "0.9"
      }, 
      "inputs": [[108, 0, 0], [109, 0, 0], [110, 0, 0], [111, 0, 1], [112, 0, 1]]
    }, 
    {
      "op": "Activation", 
      "name": "activation9", 
      "attrs": {"act_type": "relu"}, 
      "inputs": [[113, 0, 0]]
    }, 
    {
      "op": "null", 
      "name": "comp_3_conv_projection_weight", 
      "attrs": {
        "cudnn_tune": "fastest", 
        "kernel": "(1, 1, 1)", 
        "no_bias": "False", 
        "num_filter": "24", 
        "num_group": "1", 
        "pad": "(0, 0, 0)", 
        "stride": "[1, 1, 1]", 
        "workspace": "512"
      }, 
      "inputs": []
    }, 
    {
      "op": "null", 
      "name": "comp_3_conv_projection_bias", 
      "attrs": {
        "cudnn_tune": "fastest", 
        "kernel": "(1, 1, 1)", 
        "no_bias": "False", 
        "num_filter": "24", 
        "num_group": "1", 
        "pad": "(0, 0, 0)", 
        "stride": "[1, 1, 1]", 
        "workspace": "512"
      }, 
      "inputs": []
    }, 
    {
      "op": "Convolution", 
      "name": "comp_3_conv_projection", 
      "attrs": {
        "cudnn_tune": "fastest", 
        "kernel": "(1, 1, 1)", 
        "no_bias": "False", 
        "num_filter": "24", 
        "num_group": "1", 
        "pad": "(0, 0, 0)", 
        "stride": "[1, 1, 1]", 
        "workspace": "512"
      }, 
      "inputs": [[114, 0, 0], [115, 0, 0], [116, 0, 0]]
    }, 
    {
      "op": "null", 
      "name": "comp_3_spatbn_projection_gamma", 
      "attrs": {
        "eps": "0.001", 
        "fix_gamma": "False", 
        "momentum": "0.9"
      }, 
      "inputs": []
    }, 
    {
      "op": "null", 
      "name": "comp_3_spatbn_projection_beta", 
      "attrs": {
        "eps": "0.001", 
        "fix_gamma": "False", 
        "momentum": "0.9"
      }, 
      "inputs": []
    }, 
    {
      "op": "null", 
      "name": "comp_3_spatbn_projection_moving_mean", 
      "attrs": {
        "__init__": "[\"zero\", {}]", 
        "eps": "0.001", 
        "fix_gamma": "False", 
        "momentum": "0.9"
      }, 
      "inputs": []
    }, 
    {
      "op": "null", 
      "name": "comp_3_spatbn_projection_moving_var", 
      "attrs": {
        "__init__": "[\"one\", {}]", 
        "eps": "0.001", 
        "fix_gamma": "False", 
        "momentum": "0.9"
      }, 
      "inputs": []
    }, 
    {
      "op": "BatchNorm", 
      "name": "comp_3_spatbn_projection", 
      "attrs": {
        "eps": "0.001", 
        "fix_gamma": "False", 
        "momentum": "0.9"
      }, 
      "inputs": [[117, 0, 0], [118, 0, 0], [119, 0, 0], [120, 0, 1], [121, 0, 1]]
    }, 
    {
      "op": "elemwise_add", 
      "name": "_plus2", 
      "inputs": [[122, 0, 0], [96, 0, 0]]
    }, 
    {
      "op": "null", 
      "name": "comp_4_conv_expansion_weight", 
      "attrs": {
        "cudnn_tune": "fastest", 
        "kernel": "(3, 1, 1)", 
        "no_bias": "False", 
        "num_filter": "144", 
        "num_group": "1", 
        "pad": "(1, 0, 0)", 
        "stride": "[1, 1, 1]", 
        "workspace": "512"
      }, 
      "inputs": []
    }, 
    {
      "op": "null", 
      "name": "comp_4_conv_expansion_bias", 
      "attrs": {
        "cudnn_tune": "fastest", 
        "kernel": "(3, 1, 1)", 
        "no_bias": "False", 
        "num_filter": "144", 
        "num_group": "1", 
        "pad": "(1, 0, 0)", 
        "stride": "[1, 1, 1]", 
        "workspace": "512"
      }, 
      "inputs": []
    }, 
    {
      "op": "Convolution", 
      "name": "comp_4_conv_expansion", 
      "attrs": {
        "cudnn_tune": "fastest", 
        "kernel": "(3, 1, 1)", 
        "no_bias": "False", 
        "num_filter": "144", 
        "num_group": "1", 
        "pad": "(1, 0, 0)", 
        "stride": "[1, 1, 1]", 
        "workspace": "512"
      }, 
      "inputs": [[123, 0, 0], [124, 0, 0], [125, 0, 0]]
    }, 
    {
      "op": "null", 
      "name": "comp_4_spatbn_expansion_gamma", 
      "attrs": {
        "eps": "0.001", 
        "fix_gamma": "False", 
        "momentum": "0.9"
      }, 
      "inputs": []
    }, 
    {
      "op": "null", 
      "name": "comp_4_spatbn_expansion_beta", 
      "attrs": {
        "eps": "0.001", 
        "fix_gamma": "False", 
        "momentum": "0.9"
      }, 
      "inputs": []
    }, 
    {
      "op": "null", 
      "name": "comp_4_spatbn_expansion_moving_mean", 
      "attrs": {
        "__init__": "[\"zero\", {}]", 
        "eps": "0.001", 
        "fix_gamma": "False", 
        "momentum": "0.9"
      }, 
      "inputs": []
    }, 
    {
      "op": "null", 
      "name": "comp_4_spatbn_expansion_moving_var", 
      "attrs": {
        "__init__": "[\"one\", {}]", 
        "eps": "0.001", 
        "fix_gamma": "False", 
        "momentum": "0.9"
      }, 
      "inputs": []
    }, 
    {
      "op": "BatchNorm", 
      "name": "comp_4_spatbn_expansion", 
      "attrs": {
        "eps": "0.001", 
        "fix_gamma": "False", 
        "momentum": "0.9"
      }, 
      "inputs": [[126, 0, 0], [127, 0, 0], [128, 0, 0], [129, 0, 1], [130, 0, 1]]
    }, 
    {
      "op": "Activation", 
      "name": "activation10", 
      "attrs": {"act_type": "relu"}, 
      "inputs": [[131, 0, 0]]
    }, 
    {
      "op": "null", 
      "name": "comp_4_conv_depth_weight", 
      "attrs": {
        "cudnn_tune": "fastest", 
        "kernel": "(3, 3, 3)", 
        "no_bias": "False", 
        "num_filter": "144", 
        "num_group": "144", 
        "pad": "(1, 1, 1)", 
        "stride": "[2, 2, 2]", 
        "workspace": "512"
      }, 
      "inputs": []
    }, 
    {
      "op": "null", 
      "name": "comp_4_conv_depth_bias", 
      "attrs": {
        "cudnn_tune": "fastest", 
        "kernel": "(3, 3, 3)", 
        "no_bias": "False", 
        "num_filter": "144", 
        "num_group": "144", 
        "pad": "(1, 1, 1)", 
        "stride": "[2, 2, 2]", 
        "workspace": "512"
      }, 
      "inputs": []
    }, 
    {
      "op": "Convolution", 
      "name": "comp_4_conv_depth", 
      "attrs": {
        "cudnn_tune": "fastest", 
        "kernel": "(3, 3, 3)", 
        "no_bias": "False", 
        "num_filter": "144", 
        "num_group": "144", 
        "pad": "(1, 1, 1)", 
        "stride": "[2, 2, 2]", 
        "workspace": "512"
      }, 
      "inputs": [[132, 0, 0], [133, 0, 0], [134, 0, 0]]
    }, 
    {
      "op": "null", 
      "name": "comp_4_spatbn_depth_gamma", 
      "attrs": {
        "eps": "0.001", 
        "fix_gamma": "False", 
        "momentum": "0.9"
      }, 
      "inputs": []
    }, 
    {
      "op": "null", 
      "name": "comp_4_spatbn_depth_beta", 
      "attrs": {
        "eps": "0.001", 
        "fix_gamma": "False", 
        "momentum": "0.9"
      }, 
      "inputs": []
    }, 
    {
      "op": "null", 
      "name": "comp_4_spatbn_depth_moving_mean", 
      "attrs": {
        "__init__": "[\"zero\", {}]", 
        "eps": "0.001", 
        "fix_gamma": "False", 
        "momentum": "0.9"
      }, 
      "inputs": []
    }, 
    {
      "op": "null", 
      "name": "comp_4_spatbn_depth_moving_var", 
      "attrs": {
        "__init__": "[\"one\", {}]", 
        "eps": "0.001", 
        "fix_gamma": "False", 
        "momentum": "0.9"
      }, 
      "inputs": []
    }, 
    {
      "op": "BatchNorm", 
      "name": "comp_4_spatbn_depth", 
      "attrs": {
        "eps": "0.001", 
        "fix_gamma": "False", 
        "momentum": "0.9"
      }, 
      "inputs": [[135, 0, 0], [136, 0, 0], [137, 0, 0], [138, 0, 1], [139, 0, 1]]
    }, 
    {
      "op": "Activation", 
      "name": "activation11", 
      "attrs": {"act_type": "relu"}, 
      "inputs": [[140, 0, 0]]
    }, 
    {
      "op": "null", 
      "name": "comp_4_conv_projection_weight", 
      "attrs": {
        "cudnn_tune": "fastest", 
        "kernel": "(1, 1, 1)", 
        "no_bias": "False", 
        "num_filter": "48", 
        "num_group": "1", 
        "pad": "(0, 0, 0)", 
        "stride": "[1, 1, 1]", 
        "workspace": "512"
      }, 
      "inputs": []
    }, 
    {
      "op": "null", 
      "name": "comp_4_conv_projection_bias", 
      "attrs": {
        "cudnn_tune": "fastest", 
        "kernel": "(1, 1, 1)", 
        "no_bias": "False", 
        "num_filter": "48", 
        "num_group": "1", 
        "pad": "(0, 0, 0)", 
        "stride": "[1, 1, 1]", 
        "workspace": "512"
      }, 
      "inputs": []
    }, 
    {
      "op": "Convolution", 
      "name": "comp_4_conv_projection", 
      "attrs": {
        "cudnn_tune": "fastest", 
        "kernel": "(1, 1, 1)", 
        "no_bias": "False", 
        "num_filter": "48", 
        "num_group": "1", 
        "pad": "(0, 0, 0)", 
        "stride": "[1, 1, 1]", 
        "workspace": "512"
      }, 
      "inputs": [[141, 0, 0], [142, 0, 0], [143, 0, 0]]
    }, 
    {
      "op": "null", 
      "name": "comp_4_spatbn_projection_gamma", 
      "attrs": {
        "eps": "0.001", 
        "fix_gamma": "False", 
        "momentum": "0.9"
      }, 
      "inputs": []
    }, 
    {
      "op": "null", 
      "name": "comp_4_spatbn_projection_beta", 
      "attrs": {
        "eps": "0.001", 
        "fix_gamma": "False", 
        "momentum": "0.9"
      }, 
      "inputs": []
    }, 
    {
      "op": "null", 
      "name": "comp_4_spatbn_projection_moving_mean", 
      "attrs": {
        "__init__": "[\"zero\", {}]", 
        "eps": "0.001", 
        "fix_gamma": "False", 
        "momentum": "0.9"
      }, 
      "inputs": []
    }, 
    {
      "op": "null", 
      "name": "comp_4_spatbn_projection_moving_var", 
      "attrs": {
        "__init__": "[\"one\", {}]", 
        "eps": "0.001", 
        "fix_gamma": "False", 
        "momentum": "0.9"
      }, 
      "inputs": []
    }, 
    {
      "op": "BatchNorm", 
      "name": "comp_4_spatbn_projection", 
      "attrs": {
        "eps": "0.001", 
        "fix_gamma": "False", 
        "momentum": "0.9"
      }, 
      "inputs": [[144, 0, 0], [145, 0, 0], [146, 0, 0], [147, 0, 1], [148, 0, 1]]
    }, 
    {
      "op": "null", 
      "name": "comp_5_conv_expansion_weight", 
      "attrs": {
        "cudnn_tune": "fastest", 
        "kernel": "(3, 1, 1)", 
        "no_bias": "False", 
        "num_filter": "288", 
        "num_group": "1", 
        "pad": "(1, 0, 0)", 
        "stride": "[1, 1, 1]", 
        "workspace": "512"
      }, 
      "inputs": []
    }, 
    {
      "op": "null", 
      "name": "comp_5_conv_expansion_bias", 
      "attrs": {
        "cudnn_tune": "fastest", 
        "kernel": "(3, 1, 1)", 
        "no_bias": "False", 
        "num_filter": "288", 
        "num_group": "1", 
        "pad": "(1, 0, 0)", 
        "stride": "[1, 1, 1]", 
        "workspace": "512"
      }, 
      "inputs": []
    }, 
    {
      "op": "Convolution", 
      "name": "comp_5_conv_expansion", 
      "attrs": {
        "cudnn_tune": "fastest", 
        "kernel": "(3, 1, 1)", 
        "no_bias": "False", 
        "num_filter": "288", 
        "num_group": "1", 
        "pad": "(1, 0, 0)", 
        "stride": "[1, 1, 1]", 
        "workspace": "512"
      }, 
      "inputs": [[149, 0, 0], [150, 0, 0], [151, 0, 0]]
    }, 
    {
      "op": "null", 
      "name": "comp_5_spatbn_expansion_gamma", 
      "attrs": {
        "eps": "0.001", 
        "fix_gamma": "False", 
        "momentum": "0.9"
      }, 
      "inputs": []
    }, 
    {
      "op": "null", 
      "name": "comp_5_spatbn_expansion_beta", 
      "attrs": {
        "eps": "0.001", 
        "fix_gamma": "False", 
        "momentum": "0.9"
      }, 
      "inputs": []
    }, 
    {
      "op": "null", 
      "name": "comp_5_spatbn_expansion_moving_mean", 
      "attrs": {
        "__init__": "[\"zero\", {}]", 
        "eps": "0.001", 
        "fix_gamma": "False", 
        "momentum": "0.9"
      }, 
      "inputs": []
    }, 
    {
      "op": "null", 
      "name": "comp_5_spatbn_expansion_moving_var", 
      "attrs": {
        "__init__": "[\"one\", {}]", 
        "eps": "0.001", 
        "fix_gamma": "False", 
        "momentum": "0.9"
      }, 
      "inputs": []
    }, 
    {
      "op": "BatchNorm", 
      "name": "comp_5_spatbn_expansion", 
      "attrs": {
        "eps": "0.001", 
        "fix_gamma": "False", 
        "momentum": "0.9"
      }, 
      "inputs": [[152, 0, 0], [153, 0, 0], [154, 0, 0], [155, 0, 1], [156, 0, 1]]
    }, 
    {
      "op": "Activation", 
      "name": "activation12", 
      "attrs": {"act_type": "relu"}, 
      "inputs": [[157, 0, 0]]
    }, 
    {
      "op": "null", 
      "name": "comp_5_conv_depth_weight", 
      "attrs": {
        "cudnn_tune": "fastest", 
        "kernel": "(3, 3, 3)", 
        "no_bias": "False", 
        "num_filter": "288", 
        "num_group": "288", 
        "pad": "(1, 1, 1)", 
        "stride": "[1, 1, 1]", 
        "workspace": "512"
      }, 
      "inputs": []
    }, 
    {
      "op": "null", 
      "name": "comp_5_conv_depth_bias", 
      "attrs": {
        "cudnn_tune": "fastest", 
        "kernel": "(3, 3, 3)", 
        "no_bias": "False", 
        "num_filter": "288", 
        "num_group": "288", 
        "pad": "(1, 1, 1)", 
        "stride": "[1, 1, 1]", 
        "workspace": "512"
      }, 
      "inputs": []
    }, 
    {
      "op": "Convolution", 
      "name": "comp_5_conv_depth", 
      "attrs": {
        "cudnn_tune": "fastest", 
        "kernel": "(3, 3, 3)", 
        "no_bias": "False", 
        "num_filter": "288", 
        "num_group": "288", 
        "pad": "(1, 1, 1)", 
        "stride": "[1, 1, 1]", 
        "workspace": "512"
      }, 
      "inputs": [[158, 0, 0], [159, 0, 0], [160, 0, 0]]
    }, 
    {
      "op": "null", 
      "name": "comp_5_spatbn_depth_gamma", 
      "attrs": {
        "eps": "0.001", 
        "fix_gamma": "False", 
        "momentum": "0.9"
      }, 
      "inputs": []
    }, 
    {
      "op": "null", 
      "name": "comp_5_spatbn_depth_beta", 
      "attrs": {
        "eps": "0.001", 
        "fix_gamma": "False", 
        "momentum": "0.9"
      }, 
      "inputs": []
    }, 
    {
      "op": "null", 
      "name": "comp_5_spatbn_depth_moving_mean", 
      "attrs": {
        "__init__": "[\"zero\", {}]", 
        "eps": "0.001", 
        "fix_gamma": "False", 
        "momentum": "0.9"
      }, 
      "inputs": []
    }, 
    {
      "op": "null", 
      "name": "comp_5_spatbn_depth_moving_var", 
      "attrs": {
        "__init__": "[\"one\", {}]", 
        "eps": "0.001", 
        "fix_gamma": "False", 
        "momentum": "0.9"
      }, 
      "inputs": []
    }, 
    {
      "op": "BatchNorm", 
      "name": "comp_5_spatbn_depth", 
      "attrs": {
        "eps": "0.001", 
        "fix_gamma": "False", 
        "momentum": "0.9"
      }, 
      "inputs": [[161, 0, 0], [162, 0, 0], [163, 0, 0], [164, 0, 1], [165, 0, 1]]
    }, 
    {
      "op": "Activation", 
      "name": "activation13", 
      "attrs": {"act_type": "relu"}, 
      "inputs": [[166, 0, 0]]
    }, 
    {
      "op": "null", 
      "name": "comp_5_conv_projection_weight", 
      "attrs": {
        "cudnn_tune": "fastest", 
        "kernel": "(1, 1, 1)", 
        "no_bias": "False", 
        "num_filter": "48", 
        "num_group": "1", 
        "pad": "(0, 0, 0)", 
        "stride": "[1, 1, 1]", 
        "workspace": "512"
      }, 
      "inputs": []
    }, 
    {
      "op": "null", 
      "name": "comp_5_conv_projection_bias", 
      "attrs": {
        "cudnn_tune": "fastest", 
        "kernel": "(1, 1, 1)", 
        "no_bias": "False", 
        "num_filter": "48", 
        "num_group": "1", 
        "pad": "(0, 0, 0)", 
        "stride": "[1, 1, 1]", 
        "workspace": "512"
      }, 
      "inputs": []
    }, 
    {
      "op": "Convolution", 
      "name": "comp_5_conv_projection", 
      "attrs": {
        "cudnn_tune": "fastest", 
        "kernel": "(1, 1, 1)", 
        "no_bias": "False", 
        "num_filter": "48", 
        "num_group": "1", 
        "pad": "(0, 0, 0)", 
        "stride": "[1, 1, 1]", 
        "workspace": "512"
      }, 
      "inputs": [[167, 0, 0], [168, 0, 0], [169, 0, 0]]
    }, 
    {
      "op": "null", 
      "name": "comp_5_spatbn_projection_gamma", 
      "attrs": {
        "eps": "0.001", 
        "fix_gamma": "False", 
        "momentum": "0.9"
      }, 
      "inputs": []
    }, 
    {
      "op": "null", 
      "name": "comp_5_spatbn_projection_beta", 
      "attrs": {
        "eps": "0.001", 
        "fix_gamma": "False", 
        "momentum": "0.9"
      }, 
      "inputs": []
    }, 
    {
      "op": "null", 
      "name": "comp_5_spatbn_projection_moving_mean", 
      "attrs": {
        "__init__": "[\"zero\", {}]", 
        "eps": "0.001", 
        "fix_gamma": "False", 
        "momentum": "0.9"
      }, 
      "inputs": []
    }, 
    {
      "op": "null", 
      "name": "comp_5_spatbn_projection_moving_var", 
      "attrs": {
        "__init__": "[\"one\", {}]", 
        "eps": "0.001", 
        "fix_gamma": "False", 
        "momentum": "0.9"
      }, 
      "inputs": []
    }, 
    {
      "op": "BatchNorm", 
      "name": "comp_5_spatbn_projection", 
      "attrs": {
        "eps": "0.001", 
        "fix_gamma": "False", 
        "momentum": "0.9"
      }, 
      "inputs": [[170, 0, 0], [171, 0, 0], [172, 0, 0], [173, 0, 1], [174, 0, 1]]
    }, 
    {
      "op": "elemwise_add", 
      "name": "_plus3", 
      "inputs": [[175, 0, 0], [149, 0, 0]]
    }, 
    {
      "op": "null", 
      "name": "comp_6_conv_expansion_weight", 
      "attrs": {
        "cudnn_tune": "fastest", 
        "kernel": "(3, 1, 1)", 
        "no_bias": "False", 
        "num_filter": "288", 
        "num_group": "1", 
        "pad": "(1, 0, 0)", 
        "stride": "[1, 1, 1]", 
        "workspace": "512"
      }, 
      "inputs": []
    }, 
    {
      "op": "null", 
      "name": "comp_6_conv_expansion_bias", 
      "attrs": {
        "cudnn_tune": "fastest", 
        "kernel": "(3, 1, 1)", 
        "no_bias": "False", 
        "num_filter": "288", 
        "num_group": "1", 
        "pad": "(1, 0, 0)", 
        "stride": "[1, 1, 1]", 
        "workspace": "512"
      }, 
      "inputs": []
    }, 
    {
      "op": "Convolution", 
      "name": "comp_6_conv_expansion", 
      "attrs": {
        "cudnn_tune": "fastest", 
        "kernel": "(3, 1, 1)", 
        "no_bias": "False", 
        "num_filter": "288", 
        "num_group": "1", 
        "pad": "(1, 0, 0)", 
        "stride": "[1, 1, 1]", 
        "workspace": "512"
      }, 
      "inputs": [[176, 0, 0], [177, 0, 0], [178, 0, 0]]
    }, 
    {
      "op": "null", 
      "name": "comp_6_spatbn_expansion_gamma", 
      "attrs": {
        "eps": "0.001", 
        "fix_gamma": "False", 
        "momentum": "0.9"
      }, 
      "inputs": []
    }, 
    {
      "op": "null", 
      "name": "comp_6_spatbn_expansion_beta", 
      "attrs": {
        "eps": "0.001", 
        "fix_gamma": "False", 
        "momentum": "0.9"
      }, 
      "inputs": []
    }, 
    {
      "op": "null", 
      "name": "comp_6_spatbn_expansion_moving_mean", 
      "attrs": {
        "__init__": "[\"zero\", {}]", 
        "eps": "0.001", 
        "fix_gamma": "False", 
        "momentum": "0.9"
      }, 
      "inputs": []
    }, 
    {
      "op": "null", 
      "name": "comp_6_spatbn_expansion_moving_var", 
      "attrs": {
        "__init__": "[\"one\", {}]", 
        "eps": "0.001", 
        "fix_gamma": "False", 
        "momentum": "0.9"
      }, 
      "inputs": []
    }, 
    {
      "op": "BatchNorm", 
      "name": "comp_6_spatbn_expansion", 
      "attrs": {
        "eps": "0.001", 
        "fix_gamma": "False", 
        "momentum": "0.9"
      }, 
      "inputs": [[179, 0, 0], [180, 0, 0], [181, 0, 0], [182, 0, 1], [183, 0, 1]]
    }, 
    {
      "op": "Activation", 
      "name": "activation14", 
      "attrs": {"act_type": "relu"}, 
      "inputs": [[184, 0, 0]]
    }, 
    {
      "op": "null", 
      "name": "comp_6_conv_depth_weight", 
      "attrs": {
        "cudnn_tune": "fastest", 
        "kernel": "(3, 3, 3)", 
        "no_bias": "False", 
        "num_filter": "288", 
        "num_group": "288", 
        "pad": "(1, 1, 1)", 
        "stride": "[1, 1, 1]", 
        "workspace": "512"
      }, 
      "inputs": []
    }, 
    {
      "op": "null", 
      "name": "comp_6_conv_depth_bias", 
      "attrs": {
        "cudnn_tune": "fastest", 
        "kernel": "(3, 3, 3)", 
        "no_bias": "False", 
        "num_filter": "288", 
        "num_group": "288", 
        "pad": "(1, 1, 1)", 
        "stride": "[1, 1, 1]", 
        "workspace": "512"
      }, 
      "inputs": []
    }, 
    {
      "op": "Convolution", 
      "name": "comp_6_conv_depth", 
      "attrs": {
        "cudnn_tune": "fastest", 
        "kernel": "(3, 3, 3)", 
        "no_bias": "False", 
        "num_filter": "288", 
        "num_group": "288", 
        "pad": "(1, 1, 1)", 
        "stride": "[1, 1, 1]", 
        "workspace": "512"
      }, 
      "inputs": [[185, 0, 0], [186, 0, 0], [187, 0, 0]]
    }, 
    {
      "op": "null", 
      "name": "comp_6_spatbn_depth_gamma", 
      "attrs": {
        "eps": "0.001", 
        "fix_gamma": "False", 
        "momentum": "0.9"
      }, 
      "inputs": []
    }, 
    {
      "op": "null", 
      "name": "comp_6_spatbn_depth_beta", 
      "attrs": {
        "eps": "0.001", 
        "fix_gamma": "False", 
        "momentum": "0.9"
      }, 
      "inputs": []
    }, 
    {
      "op": "null", 
      "name": "comp_6_spatbn_depth_moving_mean", 
      "attrs": {
        "__init__": "[\"zero\", {}]", 
        "eps": "0.001", 
        "fix_gamma": "False", 
        "momentum": "0.9"
      }, 
      "inputs": []
    }, 
    {
      "op": "null", 
      "name": "comp_6_spatbn_depth_moving_var", 
      "attrs": {
        "__init__": "[\"one\", {}]", 
        "eps": "0.001", 
        "fix_gamma": "False", 
        "momentum": "0.9"
      }, 
      "inputs": []
    }, 
    {
      "op": "BatchNorm", 
      "name": "comp_6_spatbn_depth", 
      "attrs": {
        "eps": "0.001", 
        "fix_gamma": "False", 
        "momentum": "0.9"
      }, 
      "inputs": [[188, 0, 0], [189, 0, 0], [190, 0, 0], [191, 0, 1], [192, 0, 1]]
    }, 
    {
      "op": "Activation", 
      "name": "activation15", 
      "attrs": {"act_type": "relu"}, 
      "inputs": [[193, 0, 0]]
    }, 
    {
      "op": "null", 
      "name": "comp_6_conv_projection_weight", 
      "attrs": {
        "cudnn_tune": "fastest", 
        "kernel": "(1, 1, 1)", 
        "no_bias": "False", 
        "num_filter": "48", 
        "num_group": "1", 
        "pad": "(0, 0, 0)", 
        "stride": "[1, 1, 1]", 
        "workspace": "512"
      }, 
      "inputs": []
    }, 
    {
      "op": "null", 
      "name": "comp_6_conv_projection_bias", 
      "attrs": {
        "cudnn_tune": "fastest", 
        "kernel": "(1, 1, 1)", 
        "no_bias": "False", 
        "num_filter": "48", 
        "num_group": "1", 
        "pad": "(0, 0, 0)", 
        "stride": "[1, 1, 1]", 
        "workspace": "512"
      }, 
      "inputs": []
    }, 
    {
      "op": "Convolution", 
      "name": "comp_6_conv_projection", 
      "attrs": {
        "cudnn_tune": "fastest", 
        "kernel": "(1, 1, 1)", 
        "no_bias": "False", 
        "num_filter": "48", 
        "num_group": "1", 
        "pad": "(0, 0, 0)", 
        "stride": "[1, 1, 1]", 
        "workspace": "512"
      }, 
      "inputs": [[194, 0, 0], [195, 0, 0], [196, 0, 0]]
    }, 
    {
      "op": "null", 
      "name": "comp_6_spatbn_projection_gamma", 
      "attrs": {
        "eps": "0.001", 
        "fix_gamma": "False", 
        "momentum": "0.9"
      }, 
      "inputs": []
    }, 
    {
      "op": "null", 
      "name": "comp_6_spatbn_projection_beta", 
      "attrs": {
        "eps": "0.001", 
        "fix_gamma": "False", 
        "momentum": "0.9"
      }, 
      "inputs": []
    }, 
    {
      "op": "null", 
      "name": "comp_6_spatbn_projection_moving_mean", 
      "attrs": {
        "__init__": "[\"zero\", {}]", 
        "eps": "0.001", 
        "fix_gamma": "False", 
        "momentum": "0.9"
      }, 
      "inputs": []
    }, 
    {
      "op": "null", 
      "name": "comp_6_spatbn_projection_moving_var", 
      "attrs": {
        "__init__": "[\"one\", {}]", 
        "eps": "0.001", 
        "fix_gamma": "False", 
        "momentum": "0.9"
      }, 
      "inputs": []
    }, 
    {
      "op": "BatchNorm", 
      "name": "comp_6_spatbn_projection", 
      "attrs": {
        "eps": "0.001", 
        "fix_gamma": "False", 
        "momentum": "0.9"
      }, 
      "inputs": [[197, 0, 0], [198, 0, 0], [199, 0, 0], [200, 0, 1], [201, 0, 1]]
    }, 
    {
      "op": "elemwise_add", 
      "name": "_plus4", 
      "inputs": [[202, 0, 0], [176, 0, 0]]
    }, 
    {
      "op": "null", 
      "name": "comp_7_conv_expansion_weight", 
      "attrs": {
        "cudnn_tune": "fastest", 
        "kernel": "(3, 1, 1)", 
        "no_bias": "False", 
        "num_filter": "288", 
        "num_group": "1", 
        "pad": "(1, 0, 0)", 
        "stride": "[1, 1, 1]", 
        "workspace": "512"
      }, 
      "inputs": []
    }, 
    {
      "op": "null", 
      "name": "comp_7_conv_expansion_bias", 
      "attrs": {
        "cudnn_tune": "fastest", 
        "kernel": "(3, 1, 1)", 
        "no_bias": "False", 
        "num_filter": "288", 
        "num_group": "1", 
        "pad": "(1, 0, 0)", 
        "stride": "[1, 1, 1]", 
        "workspace": "512"
      }, 
      "inputs": []
    }, 
    {
      "op": "Convolution", 
      "name": "comp_7_conv_expansion", 
      "attrs": {
        "cudnn_tune": "fastest", 
        "kernel": "(3, 1, 1)", 
        "no_bias": "False", 
        "num_filter": "288", 
        "num_group": "1", 
        "pad": "(1, 0, 0)", 
        "stride": "[1, 1, 1]", 
        "workspace": "512"
      }, 
      "inputs": [[203, 0, 0], [204, 0, 0], [205, 0, 0]]
    }, 
    {
      "op": "null", 
      "name": "comp_7_spatbn_expansion_gamma", 
      "attrs": {
        "eps": "0.001", 
        "fix_gamma": "False", 
        "momentum": "0.9"
      }, 
      "inputs": []
    }, 
    {
      "op": "null", 
      "name": "comp_7_spatbn_expansion_beta", 
      "attrs": {
        "eps": "0.001", 
        "fix_gamma": "False", 
        "momentum": "0.9"
      }, 
      "inputs": []
    }, 
    {
      "op": "null", 
      "name": "comp_7_spatbn_expansion_moving_mean", 
      "attrs": {
        "__init__": "[\"zero\", {}]", 
        "eps": "0.001", 
        "fix_gamma": "False", 
        "momentum": "0.9"
      }, 
      "inputs": []
    }, 
    {
      "op": "null", 
      "name": "comp_7_spatbn_expansion_moving_var", 
      "attrs": {
        "__init__": "[\"one\", {}]", 
        "eps": "0.001", 
        "fix_gamma": "False", 
        "momentum": "0.9"
      }, 
      "inputs": []
    }, 
    {
      "op": "BatchNorm", 
      "name": "comp_7_spatbn_expansion", 
      "attrs": {
        "eps": "0.001", 
        "fix_gamma": "False", 
        "momentum": "0.9"
      }, 
      "inputs": [[206, 0, 0], [207, 0, 0], [208, 0, 0], [209, 0, 1], [210, 0, 1]]
    }, 
    {
      "op": "Activation", 
      "name": "activation16", 
      "attrs": {"act_type": "relu"}, 
      "inputs": [[211, 0, 0]]
    }, 
    {
      "op": "null", 
      "name": "comp_7_conv_depth_weight", 
      "attrs": {
        "cudnn_tune": "fastest", 
        "kernel": "(3, 3, 3)", 
        "no_bias": "False", 
        "num_filter": "288", 
        "num_group": "288", 
        "pad": "(1, 1, 1)", 
        "stride": "[1, 1, 1]", 
        "workspace": "512"
      }, 
      "inputs": []
    }, 
    {
      "op": "null", 
      "name": "comp_7_conv_depth_bias", 
      "attrs": {
        "cudnn_tune": "fastest", 
        "kernel": "(3, 3, 3)", 
        "no_bias": "False", 
        "num_filter": "288", 
        "num_group": "288", 
        "pad": "(1, 1, 1)", 
        "stride": "[1, 1, 1]", 
        "workspace": "512"
      }, 
      "inputs": []
    }, 
    {
      "op": "Convolution", 
      "name": "comp_7_conv_depth", 
      "attrs": {
        "cudnn_tune": "fastest", 
        "kernel": "(3, 3, 3)", 
        "no_bias": "False", 
        "num_filter": "288", 
        "num_group": "288", 
        "pad": "(1, 1, 1)", 
        "stride": "[1, 1, 1]", 
        "workspace": "512"
      }, 
      "inputs": [[212, 0, 0], [213, 0, 0], [214, 0, 0]]
    }, 
    {
      "op": "null", 
      "name": "comp_7_spatbn_depth_gamma", 
      "attrs": {
        "eps": "0.001", 
        "fix_gamma": "False", 
        "momentum": "0.9"
      }, 
      "inputs": []
    }, 
    {
      "op": "null", 
      "name": "comp_7_spatbn_depth_beta", 
      "attrs": {
        "eps": "0.001", 
        "fix_gamma": "False", 
        "momentum": "0.9"
      }, 
      "inputs": []
    }, 
    {
      "op": "null", 
      "name": "comp_7_spatbn_depth_moving_mean", 
      "attrs": {
        "__init__": "[\"zero\", {}]", 
        "eps": "0.001", 
        "fix_gamma": "False", 
        "momentum": "0.9"
      }, 
      "inputs": []
    }, 
    {
      "op": "null", 
      "name": "comp_7_spatbn_depth_moving_var", 
      "attrs": {
        "__init__": "[\"one\", {}]", 
        "eps": "0.001", 
        "fix_gamma": "False", 
        "momentum": "0.9"
      }, 
      "inputs": []
    }, 
    {
      "op": "BatchNorm", 
      "name": "comp_7_spatbn_depth", 
      "attrs": {
        "eps": "0.001", 
        "fix_gamma": "False", 
        "momentum": "0.9"
      }, 
      "inputs": [[215, 0, 0], [216, 0, 0], [217, 0, 0], [218, 0, 1], [219, 0, 1]]
    }, 
    {
      "op": "Activation", 
      "name": "activation17", 
      "attrs": {"act_type": "relu"}, 
      "inputs": [[220, 0, 0]]
    }, 
    {
      "op": "null", 
      "name": "comp_7_conv_projection_weight", 
      "attrs": {
        "cudnn_tune": "fastest", 
        "kernel": "(1, 1, 1)", 
        "no_bias": "False", 
        "num_filter": "48", 
        "num_group": "1", 
        "pad": "(0, 0, 0)", 
        "stride": "[1, 1, 1]", 
        "workspace": "512"
      }, 
      "inputs": []
    }, 
    {
      "op": "null", 
      "name": "comp_7_conv_projection_bias", 
      "attrs": {
        "cudnn_tune": "fastest", 
        "kernel": "(1, 1, 1)", 
        "no_bias": "False", 
        "num_filter": "48", 
        "num_group": "1", 
        "pad": "(0, 0, 0)", 
        "stride": "[1, 1, 1]", 
        "workspace": "512"
      }, 
      "inputs": []
    }, 
    {
      "op": "Convolution", 
      "name": "comp_7_conv_projection", 
      "attrs": {
        "cudnn_tune": "fastest", 
        "kernel": "(1, 1, 1)", 
        "no_bias": "False", 
        "num_filter": "48", 
        "num_group": "1", 
        "pad": "(0, 0, 0)", 
        "stride": "[1, 1, 1]", 
        "workspace": "512"
      }, 
      "inputs": [[221, 0, 0], [222, 0, 0], [223, 0, 0]]
    }, 
    {
      "op": "null", 
      "name": "comp_7_spatbn_projection_gamma", 
      "attrs": {
        "eps": "0.001", 
        "fix_gamma": "False", 
        "momentum": "0.9"
      }, 
      "inputs": []
    }, 
    {
      "op": "null", 
      "name": "comp_7_spatbn_projection_beta", 
      "attrs": {
        "eps": "0.001", 
        "fix_gamma": "False", 
        "momentum": "0.9"
      }, 
      "inputs": []
    }, 
    {
      "op": "null", 
      "name": "comp_7_spatbn_projection_moving_mean", 
      "attrs": {
        "__init__": "[\"zero\", {}]", 
        "eps": "0.001", 
        "fix_gamma": "False", 
        "momentum": "0.9"
      }, 
      "inputs": []
    }, 
    {
      "op": "null", 
      "name": "comp_7_spatbn_projection_moving_var", 
      "attrs": {
        "__init__": "[\"one\", {}]", 
        "eps": "0.001", 
        "fix_gamma": "False", 
        "momentum": "0.9"
      }, 
      "inputs": []
    }, 
    {
      "op": "BatchNorm", 
      "name": "comp_7_spatbn_projection", 
      "attrs": {
        "eps": "0.001", 
        "fix_gamma": "False", 
        "momentum": "0.9"
      }, 
      "inputs": [[224, 0, 0], [225, 0, 0], [226, 0, 0], [227, 0, 1], [228, 0, 1]]
    }, 
    {
      "op": "elemwise_add", 
      "name": "_plus5", 
      "inputs": [[229, 0, 0], [203, 0, 0]]
    }, 
    {
      "op": "null", 
      "name": "comp_8_conv_expansion_weight", 
      "attrs": {
        "cudnn_tune": "fastest", 
        "kernel": "(3, 1, 1)", 
        "no_bias": "False", 
        "num_filter": "288", 
        "num_group": "1", 
        "pad": "(1, 0, 0)", 
        "stride": "[1, 1, 1]", 
        "workspace": "512"
      }, 
      "inputs": []
    }, 
    {
      "op": "null", 
      "name": "comp_8_conv_expansion_bias", 
      "attrs": {
        "cudnn_tune": "fastest", 
        "kernel": "(3, 1, 1)", 
        "no_bias": "False", 
        "num_filter": "288", 
        "num_group": "1", 
        "pad": "(1, 0, 0)", 
        "stride": "[1, 1, 1]", 
        "workspace": "512"
      }, 
      "inputs": []
    }, 
    {
      "op": "Convolution", 
      "name": "comp_8_conv_expansion", 
      "attrs": {
        "cudnn_tune": "fastest", 
        "kernel": "(3, 1, 1)", 
        "no_bias": "False", 
        "num_filter": "288", 
        "num_group": "1", 
        "pad": "(1, 0, 0)", 
        "stride": "[1, 1, 1]", 
        "workspace": "512"
      }, 
      "inputs": [[230, 0, 0], [231, 0, 0], [232, 0, 0]]
    }, 
    {
      "op": "null", 
      "name": "comp_8_spatbn_expansion_gamma", 
      "attrs": {
        "eps": "0.001", 
        "fix_gamma": "False", 
        "momentum": "0.9"
      }, 
      "inputs": []
    }, 
    {
      "op": "null", 
      "name": "comp_8_spatbn_expansion_beta", 
      "attrs": {
        "eps": "0.001", 
        "fix_gamma": "False", 
        "momentum": "0.9"
      }, 
      "inputs": []
    }, 
    {
      "op": "null", 
      "name": "comp_8_spatbn_expansion_moving_mean", 
      "attrs": {
        "__init__": "[\"zero\", {}]", 
        "eps": "0.001", 
        "fix_gamma": "False", 
        "momentum": "0.9"
      }, 
      "inputs": []
    }, 
    {
      "op": "null", 
      "name": "comp_8_spatbn_expansion_moving_var", 
      "attrs": {
        "__init__": "[\"one\", {}]", 
        "eps": "0.001", 
        "fix_gamma": "False", 
        "momentum": "0.9"
      }, 
      "inputs": []
    }, 
    {
      "op": "BatchNorm", 
      "name": "comp_8_spatbn_expansion", 
      "attrs": {
        "eps": "0.001", 
        "fix_gamma": "False", 
        "momentum": "0.9"
      }, 
      "inputs": [[233, 0, 0], [234, 0, 0], [235, 0, 0], [236, 0, 1], [237, 0, 1]]
    }, 
    {
      "op": "Activation", 
      "name": "activation18", 
      "attrs": {"act_type": "relu"}, 
      "inputs": [[238, 0, 0]]
    }, 
    {
      "op": "null", 
      "name": "comp_8_conv_depth_weight", 
      "attrs": {
        "cudnn_tune": "fastest", 
        "kernel": "(3, 3, 3)", 
        "no_bias": "False", 
        "num_filter": "288", 
        "num_group": "288", 
        "pad": "(1, 1, 1)", 
        "stride": "[2, 2, 2]", 
        "workspace": "512"
      }, 
      "inputs": []
    }, 
    {
      "op": "null", 
      "name": "comp_8_conv_depth_bias", 
      "attrs": {
        "cudnn_tune": "fastest", 
        "kernel": "(3, 3, 3)", 
        "no_bias": "False", 
        "num_filter": "288", 
        "num_group": "288", 
        "pad": "(1, 1, 1)", 
        "stride": "[2, 2, 2]", 
        "workspace": "512"
      }, 
      "inputs": []
    }, 
    {
      "op": "Convolution", 
      "name": "comp_8_conv_depth", 
      "attrs": {
        "cudnn_tune": "fastest", 
        "kernel": "(3, 3, 3)", 
        "no_bias": "False", 
        "num_filter": "288", 
        "num_group": "288", 
        "pad": "(1, 1, 1)", 
        "stride": "[2, 2, 2]", 
        "workspace": "512"
      }, 
      "inputs": [[239, 0, 0], [240, 0, 0], [241, 0, 0]]
    }, 
    {
      "op": "null", 
      "name": "comp_8_spatbn_depth_gamma", 
      "attrs": {
        "eps": "0.001", 
        "fix_gamma": "False", 
        "momentum": "0.9"
      }, 
      "inputs": []
    }, 
    {
      "op": "null", 
      "name": "comp_8_spatbn_depth_beta", 
      "attrs": {
        "eps": "0.001", 
        "fix_gamma": "False", 
        "momentum": "0.9"
      }, 
      "inputs": []
    }, 
    {
      "op": "null", 
      "name": "comp_8_spatbn_depth_moving_mean", 
      "attrs": {
        "__init__": "[\"zero\", {}]", 
        "eps": "0.001", 
        "fix_gamma": "False", 
        "momentum": "0.9"
      }, 
      "inputs": []
    }, 
    {
      "op": "null", 
      "name": "comp_8_spatbn_depth_moving_var", 
      "attrs": {
        "__init__": "[\"one\", {}]", 
        "eps": "0.001", 
        "fix_gamma": "False", 
        "momentum": "0.9"
      }, 
      "inputs": []
    }, 
    {
      "op": "BatchNorm", 
      "name": "comp_8_spatbn_depth", 
      "attrs": {
        "eps": "0.001", 
        "fix_gamma": "False", 
        "momentum": "0.9"
      }, 
      "inputs": [[242, 0, 0], [243, 0, 0], [244, 0, 0], [245, 0, 1], [246, 0, 1]]
    }, 
    {
      "op": "Activation", 
      "name": "activation19", 
      "attrs": {"act_type": "relu"}, 
      "inputs": [[247, 0, 0]]
    }, 
    {
      "op": "null", 
      "name": "comp_8_conv_projection_weight", 
      "attrs": {
        "cudnn_tune": "fastest", 
        "kernel": "(1, 1, 1)", 
        "no_bias": "False", 
        "num_filter": "64", 
        "num_group": "1", 
        "pad": "(0, 0, 0)", 
        "stride": "[1, 1, 1]", 
        "workspace": "512"
      }, 
      "inputs": []
    }, 
    {
      "op": "null", 
      "name": "comp_8_conv_projection_bias", 
      "attrs": {
        "cudnn_tune": "fastest", 
        "kernel": "(1, 1, 1)", 
        "no_bias": "False", 
        "num_filter": "64", 
        "num_group": "1", 
        "pad": "(0, 0, 0)", 
        "stride": "[1, 1, 1]", 
        "workspace": "512"
      }, 
      "inputs": []
    }, 
    {
      "op": "Convolution", 
      "name": "comp_8_conv_projection", 
      "attrs": {
        "cudnn_tune": "fastest", 
        "kernel": "(1, 1, 1)", 
        "no_bias": "False", 
        "num_filter": "64", 
        "num_group": "1", 
        "pad": "(0, 0, 0)", 
        "stride": "[1, 1, 1]", 
        "workspace": "512"
      }, 
      "inputs": [[248, 0, 0], [249, 0, 0], [250, 0, 0]]
    }, 
    {
      "op": "null", 
      "name": "comp_8_spatbn_projection_gamma", 
      "attrs": {
        "eps": "0.001", 
        "fix_gamma": "False", 
        "momentum": "0.9"
      }, 
      "inputs": []
    }, 
    {
      "op": "null", 
      "name": "comp_8_spatbn_projection_beta", 
      "attrs": {
        "eps": "0.001", 
        "fix_gamma": "False", 
        "momentum": "0.9"
      }, 
      "inputs": []
    }, 
    {
      "op": "null", 
      "name": "comp_8_spatbn_projection_moving_mean", 
      "attrs": {
        "__init__": "[\"zero\", {}]", 
        "eps": "0.001", 
        "fix_gamma": "False", 
        "momentum": "0.9"
      }, 
      "inputs": []
    }, 
    {
      "op": "null", 
      "name": "comp_8_spatbn_projection_moving_var", 
      "attrs": {
        "__init__": "[\"one\", {}]", 
        "eps": "0.001", 
        "fix_gamma": "False", 
        "momentum": "0.9"
      }, 
      "inputs": []
    }, 
    {
      "op": "BatchNorm", 
      "name": "comp_8_spatbn_projection", 
      "attrs": {
        "eps": "0.001", 
        "fix_gamma": "False", 
        "momentum": "0.9"
      }, 
      "inputs": [[251, 0, 0], [252, 0, 0], [253, 0, 0], [254, 0, 1], [255, 0, 1]]
    }, 
    {
      "op": "null", 
      "name": "comp_9_conv_expansion_weight", 
      "attrs": {
        "cudnn_tune": "fastest", 
        "kernel": "(3, 1, 1)", 
        "no_bias": "False", 
        "num_filter": "384", 
        "num_group": "1", 
        "pad": "(1, 0, 0)", 
        "stride": "[1, 1, 1]", 
        "workspace": "512"
      }, 
      "inputs": []
    }, 
    {
      "op": "null", 
      "name": "comp_9_conv_expansion_bias", 
      "attrs": {
        "cudnn_tune": "fastest", 
        "kernel": "(3, 1, 1)", 
        "no_bias": "False", 
        "num_filter": "384", 
        "num_group": "1", 
        "pad": "(1, 0, 0)", 
        "stride": "[1, 1, 1]", 
        "workspace": "512"
      }, 
      "inputs": []
    }, 
    {
      "op": "Convolution", 
      "name": "comp_9_conv_expansion", 
      "attrs": {
        "cudnn_tune": "fastest", 
        "kernel": "(3, 1, 1)", 
        "no_bias": "False", 
        "num_filter": "384", 
        "num_group": "1", 
        "pad": "(1, 0, 0)", 
        "stride": "[1, 1, 1]", 
        "workspace": "512"
      }, 
      "inputs": [[256, 0, 0], [257, 0, 0], [258, 0, 0]]
    }, 
    {
      "op": "null", 
      "name": "comp_9_spatbn_expansion_gamma", 
      "attrs": {
        "eps": "0.001", 
        "fix_gamma": "False", 
        "momentum": "0.9"
      }, 
      "inputs": []
    }, 
    {
      "op": "null", 
      "name": "comp_9_spatbn_expansion_beta", 
      "attrs": {
        "eps": "0.001", 
        "fix_gamma": "False", 
        "momentum": "0.9"
      }, 
      "inputs": []
    }, 
    {
      "op": "null", 
      "name": "comp_9_spatbn_expansion_moving_mean", 
      "attrs": {
        "__init__": "[\"zero\", {}]", 
        "eps": "0.001", 
        "fix_gamma": "False", 
        "momentum": "0.9"
      }, 
      "inputs": []
    }, 
    {
      "op": "null", 
      "name": "comp_9_spatbn_expansion_moving_var", 
      "attrs": {
        "__init__": "[\"one\", {}]", 
        "eps": "0.001", 
        "fix_gamma": "False", 
        "momentum": "0.9"
      }, 
      "inputs": []
    }, 
    {
      "op": "BatchNorm", 
      "name": "comp_9_spatbn_expansion", 
      "attrs": {
        "eps": "0.001", 
        "fix_gamma": "False", 
        "momentum": "0.9"
      }, 
      "inputs": [[259, 0, 0], [260, 0, 0], [261, 0, 0], [262, 0, 1], [263, 0, 1]]
    }, 
    {
      "op": "Activation", 
      "name": "activation20", 
      "attrs": {"act_type": "relu"}, 
      "inputs": [[264, 0, 0]]
    }, 
    {
      "op": "null", 
      "name": "comp_9_conv_depth_weight", 
      "attrs": {
        "cudnn_tune": "fastest", 
        "kernel": "(3, 3, 3)", 
        "no_bias": "False", 
        "num_filter": "384", 
        "num_group": "384", 
        "pad": "(1, 1, 1)", 
        "stride": "[1, 1, 1]", 
        "workspace": "512"
      }, 
      "inputs": []
    }, 
    {
      "op": "null", 
      "name": "comp_9_conv_depth_bias", 
      "attrs": {
        "cudnn_tune": "fastest", 
        "kernel": "(3, 3, 3)", 
        "no_bias": "False", 
        "num_filter": "384", 
        "num_group": "384", 
        "pad": "(1, 1, 1)", 
        "stride": "[1, 1, 1]", 
        "workspace": "512"
      }, 
      "inputs": []
    }, 
    {
      "op": "Convolution", 
      "name": "comp_9_conv_depth", 
      "attrs": {
        "cudnn_tune": "fastest", 
        "kernel": "(3, 3, 3)", 
        "no_bias": "False", 
        "num_filter": "384", 
        "num_group": "384", 
        "pad": "(1, 1, 1)", 
        "stride": "[1, 1, 1]", 
        "workspace": "512"
      }, 
      "inputs": [[265, 0, 0], [266, 0, 0], [267, 0, 0]]
    }, 
    {
      "op": "null", 
      "name": "comp_9_spatbn_depth_gamma", 
      "attrs": {
        "eps": "0.001", 
        "fix_gamma": "False", 
        "momentum": "0.9"
      }, 
      "inputs": []
    }, 
    {
      "op": "null", 
      "name": "comp_9_spatbn_depth_beta", 
      "attrs": {
        "eps": "0.001", 
        "fix_gamma": "False", 
        "momentum": "0.9"
      }, 
      "inputs": []
    }, 
    {
      "op": "null", 
      "name": "comp_9_spatbn_depth_moving_mean", 
      "attrs": {
        "__init__": "[\"zero\", {}]", 
        "eps": "0.001", 
        "fix_gamma": "False", 
        "momentum": "0.9"
      }, 
      "inputs": []
    }, 
    {
      "op": "null", 
      "name": "comp_9_spatbn_depth_moving_var", 
      "attrs": {
        "__init__": "[\"one\", {}]", 
        "eps": "0.001", 
        "fix_gamma": "False", 
        "momentum": "0.9"
      }, 
      "inputs": []
    }, 
    {
      "op": "BatchNorm", 
      "name": "comp_9_spatbn_depth", 
      "attrs": {
        "eps": "0.001", 
        "fix_gamma": "False", 
        "momentum": "0.9"
      }, 
      "inputs": [[268, 0, 0], [269, 0, 0], [270, 0, 0], [271, 0, 1], [272, 0, 1]]
    }, 
    {
      "op": "Activation", 
      "name": "activation21", 
      "attrs": {"act_type": "relu"}, 
      "inputs": [[273, 0, 0]]
    }, 
    {
      "op": "null", 
      "name": "comp_9_conv_projection_weight", 
      "attrs": {
        "cudnn_tune": "fastest", 
        "kernel": "(1, 1, 1)", 
        "no_bias": "False", 
        "num_filter": "64", 
        "num_group": "1", 
        "pad": "(0, 0, 0)", 
        "stride": "[1, 1, 1]", 
        "workspace": "512"
      }, 
      "inputs": []
    }, 
    {
      "op": "null", 
      "name": "comp_9_conv_projection_bias", 
      "attrs": {
        "cudnn_tune": "fastest", 
        "kernel": "(1, 1, 1)", 
        "no_bias": "False", 
        "num_filter": "64", 
        "num_group": "1", 
        "pad": "(0, 0, 0)", 
        "stride": "[1, 1, 1]", 
        "workspace": "512"
      }, 
      "inputs": []
    }, 
    {
      "op": "Convolution", 
      "name": "comp_9_conv_projection", 
      "attrs": {
        "cudnn_tune": "fastest", 
        "kernel": "(1, 1, 1)", 
        "no_bias": "False", 
        "num_filter": "64", 
        "num_group": "1", 
        "pad": "(0, 0, 0)", 
        "stride": "[1, 1, 1]", 
        "workspace": "512"
      }, 
      "inputs": [[274, 0, 0], [275, 0, 0], [276, 0, 0]]
    }, 
    {
      "op": "null", 
      "name": "comp_9_spatbn_projection_gamma", 
      "attrs": {
        "eps": "0.001", 
        "fix_gamma": "False", 
        "momentum": "0.9"
      }, 
      "inputs": []
    }, 
    {
      "op": "null", 
      "name": "comp_9_spatbn_projection_beta", 
      "attrs": {
        "eps": "0.001", 
        "fix_gamma": "False", 
        "momentum": "0.9"
      }, 
      "inputs": []
    }, 
    {
      "op": "null", 
      "name": "comp_9_spatbn_projection_moving_mean", 
      "attrs": {
        "__init__": "[\"zero\", {}]", 
        "eps": "0.001", 
        "fix_gamma": "False", 
        "momentum": "0.9"
      }, 
      "inputs": []
    }, 
    {
      "op": "null", 
      "name": "comp_9_spatbn_projection_moving_var", 
      "attrs": {
        "__init__": "[\"one\", {}]", 
        "eps": "0.001", 
        "fix_gamma": "False", 
        "momentum": "0.9"
      }, 
      "inputs": []
    }, 
    {
      "op": "BatchNorm", 
      "name": "comp_9_spatbn_projection", 
      "attrs": {
        "eps": "0.001", 
        "fix_gamma": "False", 
        "momentum": "0.9"
      }, 
      "inputs": [[277, 0, 0], [278, 0, 0], [279, 0, 0], [280, 0, 1], [281, 0, 1]]
    }, 
    {
      "op": "elemwise_add", 
      "name": "_plus6", 
      "inputs": [[282, 0, 0], [256, 0, 0]]
    }, 
    {
      "op": "null", 
      "name": "comp_10_conv_expansion_weight", 
      "attrs": {
        "cudnn_tune": "fastest", 
        "kernel": "(3, 1, 1)", 
        "no_bias": "False", 
        "num_filter": "384", 
        "num_group": "1", 
        "pad": "(1, 0, 0)", 
        "stride": "[1, 1, 1]", 
        "workspace": "512"
      }, 
      "inputs": []
    }, 
    {
      "op": "null", 
      "name": "comp_10_conv_expansion_bias", 
      "attrs": {
        "cudnn_tune": "fastest", 
        "kernel": "(3, 1, 1)", 
        "no_bias": "False", 
        "num_filter": "384", 
        "num_group": "1", 
        "pad": "(1, 0, 0)", 
        "stride": "[1, 1, 1]", 
        "workspace": "512"
      }, 
      "inputs": []
    }, 
    {
      "op": "Convolution", 
      "name": "comp_10_conv_expansion", 
      "attrs": {
        "cudnn_tune": "fastest", 
        "kernel": "(3, 1, 1)", 
        "no_bias": "False", 
        "num_filter": "384", 
        "num_group": "1", 
        "pad": "(1, 0, 0)", 
        "stride": "[1, 1, 1]", 
        "workspace": "512"
      }, 
      "inputs": [[283, 0, 0], [284, 0, 0], [285, 0, 0]]
    }, 
    {
      "op": "null", 
      "name": "comp_10_spatbn_expansion_gamma", 
      "attrs": {
        "eps": "0.001", 
        "fix_gamma": "False", 
        "momentum": "0.9"
      }, 
      "inputs": []
    }, 
    {
      "op": "null", 
      "name": "comp_10_spatbn_expansion_beta", 
      "attrs": {
        "eps": "0.001", 
        "fix_gamma": "False", 
        "momentum": "0.9"
      }, 
      "inputs": []
    }, 
    {
      "op": "null", 
      "name": "comp_10_spatbn_expansion_moving_mean", 
      "attrs": {
        "__init__": "[\"zero\", {}]", 
        "eps": "0.001", 
        "fix_gamma": "False", 
        "momentum": "0.9"
      }, 
      "inputs": []
    }, 
    {
      "op": "null", 
      "name": "comp_10_spatbn_expansion_moving_var", 
      "attrs": {
        "__init__": "[\"one\", {}]", 
        "eps": "0.001", 
        "fix_gamma": "False", 
        "momentum": "0.9"
      }, 
      "inputs": []
    }, 
    {
      "op": "BatchNorm", 
      "name": "comp_10_spatbn_expansion", 
      "attrs": {
        "eps": "0.001", 
        "fix_gamma": "False", 
        "momentum": "0.9"
      }, 
      "inputs": [[286, 0, 0], [287, 0, 0], [288, 0, 0], [289, 0, 1], [290, 0, 1]]
    }, 
    {
      "op": "Activation", 
      "name": "activation22", 
      "attrs": {"act_type": "relu"}, 
      "inputs": [[291, 0, 0]]
    }, 
    {
      "op": "null", 
      "name": "comp_10_conv_depth_weight", 
      "attrs": {
        "cudnn_tune": "fastest", 
        "kernel": "(3, 3, 3)", 
        "no_bias": "False", 
        "num_filter": "384", 
        "num_group": "384", 
        "pad": "(1, 1, 1)", 
        "stride": "[1, 1, 1]", 
        "workspace": "512"
      }, 
      "inputs": []
    }, 
    {
      "op": "null", 
      "name": "comp_10_conv_depth_bias", 
      "attrs": {
        "cudnn_tune": "fastest", 
        "kernel": "(3, 3, 3)", 
        "no_bias": "False", 
        "num_filter": "384", 
        "num_group": "384", 
        "pad": "(1, 1, 1)", 
        "stride": "[1, 1, 1]", 
        "workspace": "512"
      }, 
      "inputs": []
    }, 
    {
      "op": "Convolution", 
      "name": "comp_10_conv_depth", 
      "attrs": {
        "cudnn_tune": "fastest", 
        "kernel": "(3, 3, 3)", 
        "no_bias": "False", 
        "num_filter": "384", 
        "num_group": "384", 
        "pad": "(1, 1, 1)", 
        "stride": "[1, 1, 1]", 
        "workspace": "512"
      }, 
      "inputs": [[292, 0, 0], [293, 0, 0], [294, 0, 0]]
    }, 
    {
      "op": "null", 
      "name": "comp_10_spatbn_depth_gamma", 
      "attrs": {
        "eps": "0.001", 
        "fix_gamma": "False", 
        "momentum": "0.9"
      }, 
      "inputs": []
    }, 
    {
      "op": "null", 
      "name": "comp_10_spatbn_depth_beta", 
      "attrs": {
        "eps": "0.001", 
        "fix_gamma": "False", 
        "momentum": "0.9"
      }, 
      "inputs": []
    }, 
    {
      "op": "null", 
      "name": "comp_10_spatbn_depth_moving_mean", 
      "attrs": {
        "__init__": "[\"zero\", {}]", 
        "eps": "0.001", 
        "fix_gamma": "False", 
        "momentum": "0.9"
      }, 
      "inputs": []
    }, 
    {
      "op": "null", 
      "name": "comp_10_spatbn_depth_moving_var", 
      "attrs": {
        "__init__": "[\"one\", {}]", 
        "eps": "0.001", 
        "fix_gamma": "False", 
        "momentum": "0.9"
      }, 
      "inputs": []
    }, 
    {
      "op": "BatchNorm", 
      "name": "comp_10_spatbn_depth", 
      "attrs": {
        "eps": "0.001", 
        "fix_gamma": "False", 
        "momentum": "0.9"
      }, 
      "inputs": [[295, 0, 0], [296, 0, 0], [297, 0, 0], [298, 0, 1], [299, 0, 1]]
    }, 
    {
      "op": "Activation", 
      "name": "activation23", 
      "attrs": {"act_type": "relu"}, 
      "inputs": [[300, 0, 0]]
    }, 
    {
      "op": "null", 
      "name": "comp_10_conv_projection_weight", 
      "attrs": {
        "cudnn_tune": "fastest", 
        "kernel": "(1, 1, 1)", 
        "no_bias": "False", 
        "num_filter": "64", 
        "num_group": "1", 
        "pad": "(0, 0, 0)", 
        "stride": "[1, 1, 1]", 
        "workspace": "512"
      }, 
      "inputs": []
    }, 
    {
      "op": "null", 
      "name": "comp_10_conv_projection_bias", 
      "attrs": {
        "cudnn_tune": "fastest", 
        "kernel": "(1, 1, 1)", 
        "no_bias": "False", 
        "num_filter": "64", 
        "num_group": "1", 
        "pad": "(0, 0, 0)", 
        "stride": "[1, 1, 1]", 
        "workspace": "512"
      }, 
      "inputs": []
    }, 
    {
      "op": "Convolution", 
      "name": "comp_10_conv_projection", 
      "attrs": {
        "cudnn_tune": "fastest", 
        "kernel": "(1, 1, 1)", 
        "no_bias": "False", 
        "num_filter": "64", 
        "num_group": "1", 
        "pad": "(0, 0, 0)", 
        "stride": "[1, 1, 1]", 
        "workspace": "512"
      }, 
      "inputs": [[301, 0, 0], [302, 0, 0], [303, 0, 0]]
    }, 
    {
      "op": "null", 
      "name": "comp_10_spatbn_projection_gamma", 
      "attrs": {
        "eps": "0.001", 
        "fix_gamma": "False", 
        "momentum": "0.9"
      }, 
      "inputs": []
    }, 
    {
      "op": "null", 
      "name": "comp_10_spatbn_projection_beta", 
      "attrs": {
        "eps": "0.001", 
        "fix_gamma": "False", 
        "momentum": "0.9"
      }, 
      "inputs": []
    }, 
    {
      "op": "null", 
      "name": "comp_10_spatbn_projection_moving_mean", 
      "attrs": {
        "__init__": "[\"zero\", {}]", 
        "eps": "0.001", 
        "fix_gamma": "False", 
        "momentum": "0.9"
      }, 
      "inputs": []
    }, 
    {
      "op": "null", 
      "name": "comp_10_spatbn_projection_moving_var", 
      "attrs": {
        "__init__": "[\"one\", {}]", 
        "eps": "0.001", 
        "fix_gamma": "False", 
        "momentum": "0.9"
      }, 
      "inputs": []
    }, 
    {
      "op": "BatchNorm", 
      "name": "comp_10_spatbn_projection", 
      "attrs": {
        "eps": "0.001", 
        "fix_gamma": "False", 
        "momentum": "0.9"
      }, 
      "inputs": [[304, 0, 0], [305, 0, 0], [306, 0, 0], [307, 0, 1], [308, 0, 1]]
    }, 
    {
      "op": "elemwise_add", 
      "name": "_plus7", 
      "inputs": [[309, 0, 0], [283, 0, 0]]
    }, 
    {
      "op": "null", 
      "name": "comp_11_conv_expansion_weight", 
      "attrs": {
        "cudnn_tune": "fastest", 
        "kernel": "(3, 1, 1)", 
        "no_bias": "False", 
        "num_filter": "384", 
        "num_group": "1", 
        "pad": "(1, 0, 0)", 
        "stride": "[1, 1, 1]", 
        "workspace": "512"
      }, 
      "inputs": []
    }, 
    {
      "op": "null", 
      "name": "comp_11_conv_expansion_bias", 
      "attrs": {
        "cudnn_tune": "fastest", 
        "kernel": "(3, 1, 1)", 
        "no_bias": "False", 
        "num_filter": "384", 
        "num_group": "1", 
        "pad": "(1, 0, 0)", 
        "stride": "[1, 1, 1]", 
        "workspace": "512"
      }, 
      "inputs": []
    }, 
    {
      "op": "Convolution", 
      "name": "comp_11_conv_expansion", 
      "attrs": {
        "cudnn_tune": "fastest", 
        "kernel": "(3, 1, 1)", 
        "no_bias": "False", 
        "num_filter": "384", 
        "num_group": "1", 
        "pad": "(1, 0, 0)", 
        "stride": "[1, 1, 1]", 
        "workspace": "512"
      }, 
      "inputs": [[310, 0, 0], [311, 0, 0], [312, 0, 0]]
    }, 
    {
      "op": "null", 
      "name": "comp_11_spatbn_expansion_gamma", 
      "attrs": {
        "eps": "0.001", 
        "fix_gamma": "False", 
        "momentum": "0.9"
      }, 
      "inputs": []
    }, 
    {
      "op": "null", 
      "name": "comp_11_spatbn_expansion_beta", 
      "attrs": {
        "eps": "0.001", 
        "fix_gamma": "False", 
        "momentum": "0.9"
      }, 
      "inputs": []
    }, 
    {
      "op": "null", 
      "name": "comp_11_spatbn_expansion_moving_mean", 
      "attrs": {
        "__init__": "[\"zero\", {}]", 
        "eps": "0.001", 
        "fix_gamma": "False", 
        "momentum": "0.9"
      }, 
      "inputs": []
    }, 
    {
      "op": "null", 
      "name": "comp_11_spatbn_expansion_moving_var", 
      "attrs": {
        "__init__": "[\"one\", {}]", 
        "eps": "0.001", 
        "fix_gamma": "False", 
        "momentum": "0.9"
      }, 
      "inputs": []
    }, 
    {
      "op": "BatchNorm", 
      "name": "comp_11_spatbn_expansion", 
      "attrs": {
        "eps": "0.001", 
        "fix_gamma": "False", 
        "momentum": "0.9"
      }, 
      "inputs": [[313, 0, 0], [314, 0, 0], [315, 0, 0], [316, 0, 1], [317, 0, 1]]
    }, 
    {
      "op": "Activation", 
      "name": "activation24", 
      "attrs": {"act_type": "relu"}, 
      "inputs": [[318, 0, 0]]
    }, 
    {
      "op": "null", 
      "name": "comp_11_conv_depth_weight", 
      "attrs": {
        "cudnn_tune": "fastest", 
        "kernel": "(3, 3, 3)", 
        "no_bias": "False", 
        "num_filter": "384", 
        "num_group": "384", 
        "pad": "(1, 1, 1)", 
        "stride": "[1, 1, 1]", 
        "workspace": "512"
      }, 
      "inputs": []
    }, 
    {
      "op": "null", 
      "name": "comp_11_conv_depth_bias", 
      "attrs": {
        "cudnn_tune": "fastest", 
        "kernel": "(3, 3, 3)", 
        "no_bias": "False", 
        "num_filter": "384", 
        "num_group": "384", 
        "pad": "(1, 1, 1)", 
        "stride": "[1, 1, 1]", 
        "workspace": "512"
      }, 
      "inputs": []
    }, 
    {
      "op": "Convolution", 
      "name": "comp_11_conv_depth", 
      "attrs": {
        "cudnn_tune": "fastest", 
        "kernel": "(3, 3, 3)", 
        "no_bias": "False", 
        "num_filter": "384", 
        "num_group": "384", 
        "pad": "(1, 1, 1)", 
        "stride": "[1, 1, 1]", 
        "workspace": "512"
      }, 
      "inputs": [[319, 0, 0], [320, 0, 0], [321, 0, 0]]
    }, 
    {
      "op": "null", 
      "name": "comp_11_spatbn_depth_gamma", 
      "attrs": {
        "eps": "0.001", 
        "fix_gamma": "False", 
        "momentum": "0.9"
      }, 
      "inputs": []
    }, 
    {
      "op": "null", 
      "name": "comp_11_spatbn_depth_beta", 
      "attrs": {
        "eps": "0.001", 
        "fix_gamma": "False", 
        "momentum": "0.9"
      }, 
      "inputs": []
    }, 
    {
      "op": "null", 
      "name": "comp_11_spatbn_depth_moving_mean", 
      "attrs": {
        "__init__": "[\"zero\", {}]", 
        "eps": "0.001", 
        "fix_gamma": "False", 
        "momentum": "0.9"
      }, 
      "inputs": []
    }, 
    {
      "op": "null", 
      "name": "comp_11_spatbn_depth_moving_var", 
      "attrs": {
        "__init__": "[\"one\", {}]", 
        "eps": "0.001", 
        "fix_gamma": "False", 
        "momentum": "0.9"
      }, 
      "inputs": []
    }, 
    {
      "op": "BatchNorm", 
      "name": "comp_11_spatbn_depth", 
      "attrs": {
        "eps": "0.001", 
        "fix_gamma": "False", 
        "momentum": "0.9"
      }, 
      "inputs": [[322, 0, 0], [323, 0, 0], [324, 0, 0], [325, 0, 1], [326, 0, 1]]
    }, 
    {
      "op": "Activation", 
      "name": "activation25", 
      "attrs": {"act_type": "relu"}, 
      "inputs": [[327, 0, 0]]
    }, 
    {
      "op": "null", 
      "name": "comp_11_conv_projection_weight", 
      "attrs": {
        "cudnn_tune": "fastest", 
        "kernel": "(1, 1, 1)", 
        "no_bias": "False", 
        "num_filter": "64", 
        "num_group": "1", 
        "pad": "(0, 0, 0)", 
        "stride": "[1, 1, 1]", 
        "workspace": "512"
      }, 
      "inputs": []
    }, 
    {
      "op": "null", 
      "name": "comp_11_conv_projection_bias", 
      "attrs": {
        "cudnn_tune": "fastest", 
        "kernel": "(1, 1, 1)", 
        "no_bias": "False", 
        "num_filter": "64", 
        "num_group": "1", 
        "pad": "(0, 0, 0)", 
        "stride": "[1, 1, 1]", 
        "workspace": "512"
      }, 
      "inputs": []
    }, 
    {
      "op": "Convolution", 
      "name": "comp_11_conv_projection", 
      "attrs": {
        "cudnn_tune": "fastest", 
        "kernel": "(1, 1, 1)", 
        "no_bias": "False", 
        "num_filter": "64", 
        "num_group": "1", 
        "pad": "(0, 0, 0)", 
        "stride": "[1, 1, 1]", 
        "workspace": "512"
      }, 
      "inputs": [[328, 0, 0], [329, 0, 0], [330, 0, 0]]
    }, 
    {
      "op": "null", 
      "name": "comp_11_spatbn_projection_gamma", 
      "attrs": {
        "eps": "0.001", 
        "fix_gamma": "False", 
        "momentum": "0.9"
      }, 
      "inputs": []
    }, 
    {
      "op": "null", 
      "name": "comp_11_spatbn_projection_beta", 
      "attrs": {
        "eps": "0.001", 
        "fix_gamma": "False", 
        "momentum": "0.9"
      }, 
      "inputs": []
    }, 
    {
      "op": "null", 
      "name": "comp_11_spatbn_projection_moving_mean", 
      "attrs": {
        "__init__": "[\"zero\", {}]", 
        "eps": "0.001", 
        "fix_gamma": "False", 
        "momentum": "0.9"
      }, 
      "inputs": []
    }, 
    {
      "op": "null", 
      "name": "comp_11_spatbn_projection_moving_var", 
      "attrs": {
        "__init__": "[\"one\", {}]", 
        "eps": "0.001", 
        "fix_gamma": "False", 
        "momentum": "0.9"
      }, 
      "inputs": []
    }, 
    {
      "op": "BatchNorm", 
      "name": "comp_11_spatbn_projection", 
      "attrs": {
        "eps": "0.001", 
        "fix_gamma": "False", 
        "momentum": "0.9"
      }, 
      "inputs": [[331, 0, 0], [332, 0, 0], [333, 0, 0], [334, 0, 1], [335, 0, 1]]
    }, 
    {
      "op": "elemwise_add", 
      "name": "_plus8", 
      "inputs": [[336, 0, 0], [310, 0, 0]]
    }, 
    {
      "op": "null", 
      "name": "comp_12_conv_expansion_weight", 
      "attrs": {
        "cudnn_tune": "fastest", 
        "kernel": "(3, 1, 1)", 
        "no_bias": "False", 
        "num_filter": "384", 
        "num_group": "1", 
        "pad": "(1, 0, 0)", 
        "stride": "[1, 1, 1]", 
        "workspace": "512"
      }, 
      "inputs": []
    }, 
    {
      "op": "null", 
      "name": "comp_12_conv_expansion_bias", 
      "attrs": {
        "cudnn_tune": "fastest", 
        "kernel": "(3, 1, 1)", 
        "no_bias": "False", 
        "num_filter": "384", 
        "num_group": "1", 
        "pad": "(1, 0, 0)", 
        "stride": "[1, 1, 1]", 
        "workspace": "512"
      }, 
      "inputs": []
    }, 
    {
      "op": "Convolution", 
      "name": "comp_12_conv_expansion", 
      "attrs": {
        "cudnn_tune": "fastest", 
        "kernel": "(3, 1, 1)", 
        "no_bias": "False", 
        "num_filter": "384", 
        "num_group": "1", 
        "pad": "(1, 0, 0)", 
        "stride": "[1, 1, 1]", 
        "workspace": "512"
      }, 
      "inputs": [[337, 0, 0], [338, 0, 0], [339, 0, 0]]
    }, 
    {
      "op": "null", 
      "name": "comp_12_spatbn_expansion_gamma", 
      "attrs": {
        "eps": "0.001", 
        "fix_gamma": "False", 
        "momentum": "0.9"
      }, 
      "inputs": []
    }, 
    {
      "op": "null", 
      "name": "comp_12_spatbn_expansion_beta", 
      "attrs": {
        "eps": "0.001", 
        "fix_gamma": "False", 
        "momentum": "0.9"
      }, 
      "inputs": []
    }, 
    {
      "op": "null", 
      "name": "comp_12_spatbn_expansion_moving_mean", 
      "attrs": {
        "__init__": "[\"zero\", {}]", 
        "eps": "0.001", 
        "fix_gamma": "False", 
        "momentum": "0.9"
      }, 
      "inputs": []
    }, 
    {
      "op": "null", 
      "name": "comp_12_spatbn_expansion_moving_var", 
      "attrs": {
        "__init__": "[\"one\", {}]", 
        "eps": "0.001", 
        "fix_gamma": "False", 
        "momentum": "0.9"
      }, 
      "inputs": []
    }, 
    {
      "op": "BatchNorm", 
      "name": "comp_12_spatbn_expansion", 
      "attrs": {
        "eps": "0.001", 
        "fix_gamma": "False", 
        "momentum": "0.9"
      }, 
      "inputs": [[340, 0, 0], [341, 0, 0], [342, 0, 0], [343, 0, 1], [344, 0, 1]]
    }, 
    {
      "op": "Activation", 
      "name": "activation26", 
      "attrs": {"act_type": "relu"}, 
      "inputs": [[345, 0, 0]]
    }, 
    {
      "op": "null", 
      "name": "comp_12_conv_depth_weight", 
      "attrs": {
        "cudnn_tune": "fastest", 
        "kernel": "(3, 3, 3)", 
        "no_bias": "False", 
        "num_filter": "384", 
        "num_group": "384", 
        "pad": "(1, 1, 1)", 
        "stride": "[1, 1, 1]", 
        "workspace": "512"
      }, 
      "inputs": []
    }, 
    {
      "op": "null", 
      "name": "comp_12_conv_depth_bias", 
      "attrs": {
        "cudnn_tune": "fastest", 
        "kernel": "(3, 3, 3)", 
        "no_bias": "False", 
        "num_filter": "384", 
        "num_group": "384", 
        "pad": "(1, 1, 1)", 
        "stride": "[1, 1, 1]", 
        "workspace": "512"
      }, 
      "inputs": []
    }, 
    {
      "op": "Convolution", 
      "name": "comp_12_conv_depth", 
      "attrs": {
        "cudnn_tune": "fastest", 
        "kernel": "(3, 3, 3)", 
        "no_bias": "False", 
        "num_filter": "384", 
        "num_group": "384", 
        "pad": "(1, 1, 1)", 
        "stride": "[1, 1, 1]", 
        "workspace": "512"
      }, 
      "inputs": [[346, 0, 0], [347, 0, 0], [348, 0, 0]]
    }, 
    {
      "op": "null", 
      "name": "comp_12_spatbn_depth_gamma", 
      "attrs": {
        "eps": "0.001", 
        "fix_gamma": "False", 
        "momentum": "0.9"
      }, 
      "inputs": []
    }, 
    {
      "op": "null", 
      "name": "comp_12_spatbn_depth_beta", 
      "attrs": {
        "eps": "0.001", 
        "fix_gamma": "False", 
        "momentum": "0.9"
      }, 
      "inputs": []
    }, 
    {
      "op": "null", 
      "name": "comp_12_spatbn_depth_moving_mean", 
      "attrs": {
        "__init__": "[\"zero\", {}]", 
        "eps": "0.001", 
        "fix_gamma": "False", 
        "momentum": "0.9"
      }, 
      "inputs": []
    }, 
    {
      "op": "null", 
      "name": "comp_12_spatbn_depth_moving_var", 
      "attrs": {
        "__init__": "[\"one\", {}]", 
        "eps": "0.001", 
        "fix_gamma": "False", 
        "momentum": "0.9"
      }, 
      "inputs": []
    }, 
    {
      "op": "BatchNorm", 
      "name": "comp_12_spatbn_depth", 
      "attrs": {
        "eps": "0.001", 
        "fix_gamma": "False", 
        "momentum": "0.9"
      }, 
      "inputs": [[349, 0, 0], [350, 0, 0], [351, 0, 0], [352, 0, 1], [353, 0, 1]]
    }, 
    {
      "op": "Activation", 
      "name": "activation27", 
      "attrs": {"act_type": "relu"}, 
      "inputs": [[354, 0, 0]]
    }, 
    {
      "op": "null", 
      "name": "comp_12_conv_projection_weight", 
      "attrs": {
        "cudnn_tune": "fastest", 
        "kernel": "(1, 1, 1)", 
        "no_bias": "False", 
        "num_filter": "64", 
        "num_group": "1", 
        "pad": "(0, 0, 0)", 
        "stride": "[1, 1, 1]", 
        "workspace": "512"
      }, 
      "inputs": []
    }, 
    {
      "op": "null", 
      "name": "comp_12_conv_projection_bias", 
      "attrs": {
        "cudnn_tune": "fastest", 
        "kernel": "(1, 1, 1)", 
        "no_bias": "False", 
        "num_filter": "64", 
        "num_group": "1", 
        "pad": "(0, 0, 0)", 
        "stride": "[1, 1, 1]", 
        "workspace": "512"
      }, 
      "inputs": []
    }, 
    {
      "op": "Convolution", 
      "name": "comp_12_conv_projection", 
      "attrs": {
        "cudnn_tune": "fastest", 
        "kernel": "(1, 1, 1)", 
        "no_bias": "False", 
        "num_filter": "64", 
        "num_group": "1", 
        "pad": "(0, 0, 0)", 
        "stride": "[1, 1, 1]", 
        "workspace": "512"
      }, 
      "inputs": [[355, 0, 0], [356, 0, 0], [357, 0, 0]]
    }, 
    {
      "op": "null", 
      "name": "comp_12_spatbn_projection_gamma", 
      "attrs": {
        "eps": "0.001", 
        "fix_gamma": "False", 
        "momentum": "0.9"
      }, 
      "inputs": []
    }, 
    {
      "op": "null", 
      "name": "comp_12_spatbn_projection_beta", 
      "attrs": {
        "eps": "0.001", 
        "fix_gamma": "False", 
        "momentum": "0.9"
      }, 
      "inputs": []
    }, 
    {
      "op": "null", 
      "name": "comp_12_spatbn_projection_moving_mean", 
      "attrs": {
        "__init__": "[\"zero\", {}]", 
        "eps": "0.001", 
        "fix_gamma": "False", 
        "momentum": "0.9"
      }, 
      "inputs": []
    }, 
    {
      "op": "null", 
      "name": "comp_12_spatbn_projection_moving_var", 
      "attrs": {
        "__init__": "[\"one\", {}]", 
        "eps": "0.001", 
        "fix_gamma": "False", 
        "momentum": "0.9"
      }, 
      "inputs": []
    }, 
    {
      "op": "BatchNorm", 
      "name": "comp_12_spatbn_projection", 
      "attrs": {
        "eps": "0.001", 
        "fix_gamma": "False", 
        "momentum": "0.9"
      }, 
      "inputs": [[358, 0, 0], [359, 0, 0], [360, 0, 0], [361, 0, 1], [362, 0, 1]]
    }, 
    {
      "op": "elemwise_add", 
      "name": "_plus9", 
      "inputs": [[363, 0, 0], [337, 0, 0]]
    }, 
    {
      "op": "null", 
      "name": "comp_13_conv_expansion_weight", 
      "attrs": {
        "cudnn_tune": "fastest", 
        "kernel": "(3, 1, 1)", 
        "no_bias": "False", 
        "num_filter": "384", 
        "num_group": "1", 
        "pad": "(1, 0, 0)", 
        "stride": "[1, 1, 1]", 
        "workspace": "512"
      }, 
      "inputs": []
    }, 
    {
      "op": "null", 
      "name": "comp_13_conv_expansion_bias", 
      "attrs": {
        "cudnn_tune": "fastest", 
        "kernel": "(3, 1, 1)", 
        "no_bias": "False", 
        "num_filter": "384", 
        "num_group": "1", 
        "pad": "(1, 0, 0)", 
        "stride": "[1, 1, 1]", 
        "workspace": "512"
      }, 
      "inputs": []
    }, 
    {
      "op": "Convolution", 
      "name": "comp_13_conv_expansion", 
      "attrs": {
        "cudnn_tune": "fastest", 
        "kernel": "(3, 1, 1)", 
        "no_bias": "False", 
        "num_filter": "384", 
        "num_group": "1", 
        "pad": "(1, 0, 0)", 
        "stride": "[1, 1, 1]", 
        "workspace": "512"
      }, 
      "inputs": [[364, 0, 0], [365, 0, 0], [366, 0, 0]]
    }, 
    {
      "op": "null", 
      "name": "comp_13_spatbn_expansion_gamma", 
      "attrs": {
        "eps": "0.001", 
        "fix_gamma": "False", 
        "momentum": "0.9"
      }, 
      "inputs": []
    }, 
    {
      "op": "null", 
      "name": "comp_13_spatbn_expansion_beta", 
      "attrs": {
        "eps": "0.001", 
        "fix_gamma": "False", 
        "momentum": "0.9"
      }, 
      "inputs": []
    }, 
    {
      "op": "null", 
      "name": "comp_13_spatbn_expansion_moving_mean", 
      "attrs": {
        "__init__": "[\"zero\", {}]", 
        "eps": "0.001", 
        "fix_gamma": "False", 
        "momentum": "0.9"
      }, 
      "inputs": []
    }, 
    {
      "op": "null", 
      "name": "comp_13_spatbn_expansion_moving_var", 
      "attrs": {
        "__init__": "[\"one\", {}]", 
        "eps": "0.001", 
        "fix_gamma": "False", 
        "momentum": "0.9"
      }, 
      "inputs": []
    }, 
    {
      "op": "BatchNorm", 
      "name": "comp_13_spatbn_expansion", 
      "attrs": {
        "eps": "0.001", 
        "fix_gamma": "False", 
        "momentum": "0.9"
      }, 
      "inputs": [[367, 0, 0], [368, 0, 0], [369, 0, 0], [370, 0, 1], [371, 0, 1]]
    }, 
    {
      "op": "Activation", 
      "name": "activation28", 
      "attrs": {"act_type": "relu"}, 
      "inputs": [[372, 0, 0]]
    }, 
    {
      "op": "null", 
      "name": "comp_13_conv_depth_weight", 
      "attrs": {
        "cudnn_tune": "fastest", 
        "kernel": "(3, 3, 3)", 
        "no_bias": "False", 
        "num_filter": "384", 
        "num_group": "384", 
        "pad": "(1, 1, 1)", 
        "stride": "[1, 1, 1]", 
        "workspace": "512"
      }, 
      "inputs": []
    }, 
    {
      "op": "null", 
      "name": "comp_13_conv_depth_bias", 
      "attrs": {
        "cudnn_tune": "fastest", 
        "kernel": "(3, 3, 3)", 
        "no_bias": "False", 
        "num_filter": "384", 
        "num_group": "384", 
        "pad": "(1, 1, 1)", 
        "stride": "[1, 1, 1]", 
        "workspace": "512"
      }, 
      "inputs": []
    }, 
    {
      "op": "Convolution", 
      "name": "comp_13_conv_depth", 
      "attrs": {
        "cudnn_tune": "fastest", 
        "kernel": "(3, 3, 3)", 
        "no_bias": "False", 
        "num_filter": "384", 
        "num_group": "384", 
        "pad": "(1, 1, 1)", 
        "stride": "[1, 1, 1]", 
        "workspace": "512"
      }, 
      "inputs": [[373, 0, 0], [374, 0, 0], [375, 0, 0]]
    }, 
    {
      "op": "null", 
      "name": "comp_13_spatbn_depth_gamma", 
      "attrs": {
        "eps": "0.001", 
        "fix_gamma": "False", 
        "momentum": "0.9"
      }, 
      "inputs": []
    }, 
    {
      "op": "null", 
      "name": "comp_13_spatbn_depth_beta", 
      "attrs": {
        "eps": "0.001", 
        "fix_gamma": "False", 
        "momentum": "0.9"
      }, 
      "inputs": []
    }, 
    {
      "op": "null", 
      "name": "comp_13_spatbn_depth_moving_mean", 
      "attrs": {
        "__init__": "[\"zero\", {}]", 
        "eps": "0.001", 
        "fix_gamma": "False", 
        "momentum": "0.9"
      }, 
      "inputs": []
    }, 
    {
      "op": "null", 
      "name": "comp_13_spatbn_depth_moving_var", 
      "attrs": {
        "__init__": "[\"one\", {}]", 
        "eps": "0.001", 
        "fix_gamma": "False", 
        "momentum": "0.9"
      }, 
      "inputs": []
    }, 
    {
      "op": "BatchNorm", 
      "name": "comp_13_spatbn_depth", 
      "attrs": {
        "eps": "0.001", 
        "fix_gamma": "False", 
        "momentum": "0.9"
      }, 
      "inputs": [[376, 0, 0], [377, 0, 0], [378, 0, 0], [379, 0, 1], [380, 0, 1]]
    }, 
    {
      "op": "Activation", 
      "name": "activation29", 
      "attrs": {"act_type": "relu"}, 
      "inputs": [[381, 0, 0]]
    }, 
    {
      "op": "null", 
      "name": "comp_13_conv_projection_weight", 
      "attrs": {
        "cudnn_tune": "fastest", 
        "kernel": "(1, 1, 1)", 
        "no_bias": "False", 
        "num_filter": "64", 
        "num_group": "1", 
        "pad": "(0, 0, 0)", 
        "stride": "[1, 1, 1]", 
        "workspace": "512"
      }, 
      "inputs": []
    }, 
    {
      "op": "null", 
      "name": "comp_13_conv_projection_bias", 
      "attrs": {
        "cudnn_tune": "fastest", 
        "kernel": "(1, 1, 1)", 
        "no_bias": "False", 
        "num_filter": "64", 
        "num_group": "1", 
        "pad": "(0, 0, 0)", 
        "stride": "[1, 1, 1]", 
        "workspace": "512"
      }, 
      "inputs": []
    }, 
    {
      "op": "Convolution", 
      "name": "comp_13_conv_projection", 
      "attrs": {
        "cudnn_tune": "fastest", 
        "kernel": "(1, 1, 1)", 
        "no_bias": "False", 
        "num_filter": "64", 
        "num_group": "1", 
        "pad": "(0, 0, 0)", 
        "stride": "[1, 1, 1]", 
        "workspace": "512"
      }, 
      "inputs": [[382, 0, 0], [383, 0, 0], [384, 0, 0]]
    }, 
    {
      "op": "null", 
      "name": "comp_13_spatbn_projection_gamma", 
      "attrs": {
        "eps": "0.001", 
        "fix_gamma": "False", 
        "momentum": "0.9"
      }, 
      "inputs": []
    }, 
    {
      "op": "null", 
      "name": "comp_13_spatbn_projection_beta", 
      "attrs": {
        "eps": "0.001", 
        "fix_gamma": "False", 
        "momentum": "0.9"
      }, 
      "inputs": []
    }, 
    {
      "op": "null", 
      "name": "comp_13_spatbn_projection_moving_mean", 
      "attrs": {
        "__init__": "[\"zero\", {}]", 
        "eps": "0.001", 
        "fix_gamma": "False", 
        "momentum": "0.9"
      }, 
      "inputs": []
    }, 
    {
      "op": "null", 
      "name": "comp_13_spatbn_projection_moving_var", 
      "attrs": {
        "__init__": "[\"one\", {}]", 
        "eps": "0.001", 
        "fix_gamma": "False", 
        "momentum": "0.9"
      }, 
      "inputs": []
    }, 
    {
      "op": "BatchNorm", 
      "name": "comp_13_spatbn_projection", 
      "attrs": {
        "eps": "0.001", 
        "fix_gamma": "False", 
        "momentum": "0.9"
      }, 
      "inputs": [[385, 0, 0], [386, 0, 0], [387, 0, 0], [388, 0, 1], [389, 0, 1]]
    }, 
    {
      "op": "elemwise_add", 
      "name": "_plus10", 
      "inputs": [[390, 0, 0], [364, 0, 0]]
    }, 
    {
      "op": "null", 
      "name": "comp_14_conv_expansion_weight", 
      "attrs": {
        "cudnn_tune": "fastest", 
        "kernel": "(3, 1, 1)", 
        "no_bias": "False", 
        "num_filter": "384", 
        "num_group": "1", 
        "pad": "(1, 0, 0)", 
        "stride": "[1, 1, 1]", 
        "workspace": "512"
      }, 
      "inputs": []
    }, 
    {
      "op": "null", 
      "name": "comp_14_conv_expansion_bias", 
      "attrs": {
        "cudnn_tune": "fastest", 
        "kernel": "(3, 1, 1)", 
        "no_bias": "False", 
        "num_filter": "384", 
        "num_group": "1", 
        "pad": "(1, 0, 0)", 
        "stride": "[1, 1, 1]", 
        "workspace": "512"
      }, 
      "inputs": []
    }, 
    {
      "op": "Convolution", 
      "name": "comp_14_conv_expansion", 
      "attrs": {
        "cudnn_tune": "fastest", 
        "kernel": "(3, 1, 1)", 
        "no_bias": "False", 
        "num_filter": "384", 
        "num_group": "1", 
        "pad": "(1, 0, 0)", 
        "stride": "[1, 1, 1]", 
        "workspace": "512"
      }, 
      "inputs": [[391, 0, 0], [392, 0, 0], [393, 0, 0]]
    }, 
    {
      "op": "null", 
      "name": "comp_14_spatbn_expansion_gamma", 
      "attrs": {
        "eps": "0.001", 
        "fix_gamma": "False", 
        "momentum": "0.9"
      }, 
      "inputs": []
    }, 
    {
      "op": "null", 
      "name": "comp_14_spatbn_expansion_beta", 
      "attrs": {
        "eps": "0.001", 
        "fix_gamma": "False", 
        "momentum": "0.9"
      }, 
      "inputs": []
    }, 
    {
      "op": "null", 
      "name": "comp_14_spatbn_expansion_moving_mean", 
      "attrs": {
        "__init__": "[\"zero\", {}]", 
        "eps": "0.001", 
        "fix_gamma": "False", 
        "momentum": "0.9"
      }, 
      "inputs": []
    }, 
    {
      "op": "null", 
      "name": "comp_14_spatbn_expansion_moving_var", 
      "attrs": {
        "__init__": "[\"one\", {}]", 
        "eps": "0.001", 
        "fix_gamma": "False", 
        "momentum": "0.9"
      }, 
      "inputs": []
    }, 
    {
      "op": "BatchNorm", 
      "name": "comp_14_spatbn_expansion", 
      "attrs": {
        "eps": "0.001", 
        "fix_gamma": "False", 
        "momentum": "0.9"
      }, 
      "inputs": [[394, 0, 0], [395, 0, 0], [396, 0, 0], [397, 0, 1], [398, 0, 1]]
    }, 
    {
      "op": "Activation", 
      "name": "activation30", 
      "attrs": {"act_type": "relu"}, 
      "inputs": [[399, 0, 0]]
    }, 
    {
      "op": "null", 
      "name": "comp_14_conv_depth_weight", 
      "attrs": {
        "cudnn_tune": "fastest", 
        "kernel": "(3, 3, 3)", 
        "no_bias": "False", 
        "num_filter": "384", 
        "num_group": "384", 
        "pad": "(1, 1, 1)", 
        "stride": "[2, 2, 2]", 
        "workspace": "512"
      }, 
      "inputs": []
    }, 
    {
      "op": "null", 
      "name": "comp_14_conv_depth_bias", 
      "attrs": {
        "cudnn_tune": "fastest", 
        "kernel": "(3, 3, 3)", 
        "no_bias": "False", 
        "num_filter": "384", 
        "num_group": "384", 
        "pad": "(1, 1, 1)", 
        "stride": "[2, 2, 2]", 
        "workspace": "512"
      }, 
      "inputs": []
    }, 
    {
      "op": "Convolution", 
      "name": "comp_14_conv_depth", 
      "attrs": {
        "cudnn_tune": "fastest", 
        "kernel": "(3, 3, 3)", 
        "no_bias": "False", 
        "num_filter": "384", 
        "num_group": "384", 
        "pad": "(1, 1, 1)", 
        "stride": "[2, 2, 2]", 
        "workspace": "512"
      }, 
      "inputs": [[400, 0, 0], [401, 0, 0], [402, 0, 0]]
    }, 
    {
      "op": "null", 
      "name": "comp_14_spatbn_depth_gamma", 
      "attrs": {
        "eps": "0.001", 
        "fix_gamma": "False", 
        "momentum": "0.9"
      }, 
      "inputs": []
    }, 
    {
      "op": "null", 
      "name": "comp_14_spatbn_depth_beta", 
      "attrs": {
        "eps": "0.001", 
        "fix_gamma": "False", 
        "momentum": "0.9"
      }, 
      "inputs": []
    }, 
    {
      "op": "null", 
      "name": "comp_14_spatbn_depth_moving_mean", 
      "attrs": {
        "__init__": "[\"zero\", {}]", 
        "eps": "0.001", 
        "fix_gamma": "False", 
        "momentum": "0.9"
      }, 
      "inputs": []
    }, 
    {
      "op": "null", 
      "name": "comp_14_spatbn_depth_moving_var", 
      "attrs": {
        "__init__": "[\"one\", {}]", 
        "eps": "0.001", 
        "fix_gamma": "False", 
        "momentum": "0.9"
      }, 
      "inputs": []
    }, 
    {
      "op": "BatchNorm", 
      "name": "comp_14_spatbn_depth", 
      "attrs": {
        "eps": "0.001", 
        "fix_gamma": "False", 
        "momentum": "0.9"
      }, 
      "inputs": [[403, 0, 0], [404, 0, 0], [405, 0, 0], [406, 0, 1], [407, 0, 1]]
    }, 
    {
      "op": "Activation", 
      "name": "activation31", 
      "attrs": {"act_type": "relu"}, 
      "inputs": [[408, 0, 0]]
    }, 
    {
      "op": "null", 
      "name": "comp_14_conv_projection_weight", 
      "attrs": {
        "cudnn_tune": "fastest", 
        "kernel": "(1, 1, 1)", 
        "no_bias": "False", 
        "num_filter": "96", 
        "num_group": "1", 
        "pad": "(0, 0, 0)", 
        "stride": "[1, 1, 1]", 
        "workspace": "512"
      }, 
      "inputs": []
    }, 
    {
      "op": "null", 
      "name": "comp_14_conv_projection_bias", 
      "attrs": {
        "cudnn_tune": "fastest", 
        "kernel": "(1, 1, 1)", 
        "no_bias": "False", 
        "num_filter": "96", 
        "num_group": "1", 
        "pad": "(0, 0, 0)", 
        "stride": "[1, 1, 1]", 
        "workspace": "512"
      }, 
      "inputs": []
    }, 
    {
      "op": "Convolution", 
      "name": "comp_14_conv_projection", 
      "attrs": {
        "cudnn_tune": "fastest", 
        "kernel": "(1, 1, 1)", 
        "no_bias": "False", 
        "num_filter": "96", 
        "num_group": "1", 
        "pad": "(0, 0, 0)", 
        "stride": "[1, 1, 1]", 
        "workspace": "512"
      }, 
      "inputs": [[409, 0, 0], [410, 0, 0], [411, 0, 0]]
    }, 
    {
      "op": "null", 
      "name": "comp_14_spatbn_projection_gamma", 
      "attrs": {
        "eps": "0.001", 
        "fix_gamma": "False", 
        "momentum": "0.9"
      }, 
      "inputs": []
    }, 
    {
      "op": "null", 
      "name": "comp_14_spatbn_projection_beta", 
      "attrs": {
        "eps": "0.001", 
        "fix_gamma": "False", 
        "momentum": "0.9"
      }, 
      "inputs": []
    }, 
    {
      "op": "null", 
      "name": "comp_14_spatbn_projection_moving_mean", 
      "attrs": {
        "__init__": "[\"zero\", {}]", 
        "eps": "0.001", 
        "fix_gamma": "False", 
        "momentum": "0.9"
      }, 
      "inputs": []
    }, 
    {
      "op": "null", 
      "name": "comp_14_spatbn_projection_moving_var", 
      "attrs": {
        "__init__": "[\"one\", {}]", 
        "eps": "0.001", 
        "fix_gamma": "False", 
        "momentum": "0.9"
      }, 
      "inputs": []
    }, 
    {
      "op": "BatchNorm", 
      "name": "comp_14_spatbn_projection", 
      "attrs": {
        "eps": "0.001", 
        "fix_gamma": "False", 
        "momentum": "0.9"
      }, 
      "inputs": [[412, 0, 0], [413, 0, 0], [414, 0, 0], [415, 0, 1], [416, 0, 1]]
    }, 
    {
      "op": "null", 
      "name": "comp_15_conv_expansion_weight", 
      "attrs": {
        "cudnn_tune": "fastest", 
        "kernel": "(3, 1, 1)", 
        "no_bias": "False", 
        "num_filter": "576", 
        "num_group": "1", 
        "pad": "(1, 0, 0)", 
        "stride": "[1, 1, 1]", 
        "workspace": "512"
      }, 
      "inputs": []
    }, 
    {
      "op": "null", 
      "name": "comp_15_conv_expansion_bias", 
      "attrs": {
        "cudnn_tune": "fastest", 
        "kernel": "(3, 1, 1)", 
        "no_bias": "False", 
        "num_filter": "576", 
        "num_group": "1", 
        "pad": "(1, 0, 0)", 
        "stride": "[1, 1, 1]", 
        "workspace": "512"
      }, 
      "inputs": []
    }, 
    {
      "op": "Convolution", 
      "name": "comp_15_conv_expansion", 
      "attrs": {
        "cudnn_tune": "fastest", 
        "kernel": "(3, 1, 1)", 
        "no_bias": "False", 
        "num_filter": "576", 
        "num_group": "1", 
        "pad": "(1, 0, 0)", 
        "stride": "[1, 1, 1]", 
        "workspace": "512"
      }, 
      "inputs": [[417, 0, 0], [418, 0, 0], [419, 0, 0]]
    }, 
    {
      "op": "null", 
      "name": "comp_15_spatbn_expansion_gamma", 
      "attrs": {
        "eps": "0.001", 
        "fix_gamma": "False", 
        "momentum": "0.9"
      }, 
      "inputs": []
    }, 
    {
      "op": "null", 
      "name": "comp_15_spatbn_expansion_beta", 
      "attrs": {
        "eps": "0.001", 
        "fix_gamma": "False", 
        "momentum": "0.9"
      }, 
      "inputs": []
    }, 
    {
      "op": "null", 
      "name": "comp_15_spatbn_expansion_moving_mean", 
      "attrs": {
        "__init__": "[\"zero\", {}]", 
        "eps": "0.001", 
        "fix_gamma": "False", 
        "momentum": "0.9"
      }, 
      "inputs": []
    }, 
    {
      "op": "null", 
      "name": "comp_15_spatbn_expansion_moving_var", 
      "attrs": {
        "__init__": "[\"one\", {}]", 
        "eps": "0.001", 
        "fix_gamma": "False", 
        "momentum": "0.9"
      }, 
      "inputs": []
    }, 
    {
      "op": "BatchNorm", 
      "name": "comp_15_spatbn_expansion", 
      "attrs": {
        "eps": "0.001", 
        "fix_gamma": "False", 
        "momentum": "0.9"
      }, 
      "inputs": [[420, 0, 0], [421, 0, 0], [422, 0, 0], [423, 0, 1], [424, 0, 1]]
    }, 
    {
      "op": "Activation", 
      "name": "activation32", 
      "attrs": {"act_type": "relu"}, 
      "inputs": [[425, 0, 0]]
    }, 
    {
      "op": "null", 
      "name": "comp_15_conv_depth_weight", 
      "attrs": {
        "cudnn_tune": "fastest", 
        "kernel": "(3, 3, 3)", 
        "no_bias": "False", 
        "num_filter": "576", 
        "num_group": "576", 
        "pad": "(1, 1, 1)", 
        "stride": "[1, 1, 1]", 
        "workspace": "512"
      }, 
      "inputs": []
    }, 
    {
      "op": "null", 
      "name": "comp_15_conv_depth_bias", 
      "attrs": {
        "cudnn_tune": "fastest", 
        "kernel": "(3, 3, 3)", 
        "no_bias": "False", 
        "num_filter": "576", 
        "num_group": "576", 
        "pad": "(1, 1, 1)", 
        "stride": "[1, 1, 1]", 
        "workspace": "512"
      }, 
      "inputs": []
    }, 
    {
      "op": "Convolution", 
      "name": "comp_15_conv_depth", 
      "attrs": {
        "cudnn_tune": "fastest", 
        "kernel": "(3, 3, 3)", 
        "no_bias": "False", 
        "num_filter": "576", 
        "num_group": "576", 
        "pad": "(1, 1, 1)", 
        "stride": "[1, 1, 1]", 
        "workspace": "512"
      }, 
      "inputs": [[426, 0, 0], [427, 0, 0], [428, 0, 0]]
    }, 
    {
      "op": "null", 
      "name": "comp_15_spatbn_depth_gamma", 
      "attrs": {
        "eps": "0.001", 
        "fix_gamma": "False", 
        "momentum": "0.9"
      }, 
      "inputs": []
    }, 
    {
      "op": "null", 
      "name": "comp_15_spatbn_depth_beta", 
      "attrs": {
        "eps": "0.001", 
        "fix_gamma": "False", 
        "momentum": "0.9"
      }, 
      "inputs": []
    }, 
    {
      "op": "null", 
      "name": "comp_15_spatbn_depth_moving_mean", 
      "attrs": {
        "__init__": "[\"zero\", {}]", 
        "eps": "0.001", 
        "fix_gamma": "False", 
        "momentum": "0.9"
      }, 
      "inputs": []
    }, 
    {
      "op": "null", 
      "name": "comp_15_spatbn_depth_moving_var", 
      "attrs": {
        "__init__": "[\"one\", {}]", 
        "eps": "0.001", 
        "fix_gamma": "False", 
        "momentum": "0.9"
      }, 
      "inputs": []
    }, 
    {
      "op": "BatchNorm", 
      "name": "comp_15_spatbn_depth", 
      "attrs": {
        "eps": "0.001", 
        "fix_gamma": "False", 
        "momentum": "0.9"
      }, 
      "inputs": [[429, 0, 0], [430, 0, 0], [431, 0, 0], [432, 0, 1], [433, 0, 1]]
    }, 
    {
      "op": "Activation", 
      "name": "activation33", 
      "attrs": {"act_type": "relu"}, 
      "inputs": [[434, 0, 0]]
    }, 
    {
      "op": "null", 
      "name": "comp_15_conv_projection_weight", 
      "attrs": {
        "cudnn_tune": "fastest", 
        "kernel": "(1, 1, 1)", 
        "no_bias": "False", 
        "num_filter": "96", 
        "num_group": "1", 
        "pad": "(0, 0, 0)", 
        "stride": "[1, 1, 1]", 
        "workspace": "512"
      }, 
      "inputs": []
    }, 
    {
      "op": "null", 
      "name": "comp_15_conv_projection_bias", 
      "attrs": {
        "cudnn_tune": "fastest", 
        "kernel": "(1, 1, 1)", 
        "no_bias": "False", 
        "num_filter": "96", 
        "num_group": "1", 
        "pad": "(0, 0, 0)", 
        "stride": "[1, 1, 1]", 
        "workspace": "512"
      }, 
      "inputs": []
    }, 
    {
      "op": "Convolution", 
      "name": "comp_15_conv_projection", 
      "attrs": {
        "cudnn_tune": "fastest", 
        "kernel": "(1, 1, 1)", 
        "no_bias": "False", 
        "num_filter": "96", 
        "num_group": "1", 
        "pad": "(0, 0, 0)", 
        "stride": "[1, 1, 1]", 
        "workspace": "512"
      }, 
      "inputs": [[435, 0, 0], [436, 0, 0], [437, 0, 0]]
    }, 
    {
      "op": "null", 
      "name": "comp_15_spatbn_projection_gamma", 
      "attrs": {
        "eps": "0.001", 
        "fix_gamma": "False", 
        "momentum": "0.9"
      }, 
      "inputs": []
    }, 
    {
      "op": "null", 
      "name": "comp_15_spatbn_projection_beta", 
      "attrs": {
        "eps": "0.001", 
        "fix_gamma": "False", 
        "momentum": "0.9"
      }, 
      "inputs": []
    }, 
    {
      "op": "null", 
      "name": "comp_15_spatbn_projection_moving_mean", 
      "attrs": {
        "__init__": "[\"zero\", {}]", 
        "eps": "0.001", 
        "fix_gamma": "False", 
        "momentum": "0.9"
      }, 
      "inputs": []
    }, 
    {
      "op": "null", 
      "name": "comp_15_spatbn_projection_moving_var", 
      "attrs": {
        "__init__": "[\"one\", {}]", 
        "eps": "0.001", 
        "fix_gamma": "False", 
        "momentum": "0.9"
      }, 
      "inputs": []
    }, 
    {
      "op": "BatchNorm", 
      "name": "comp_15_spatbn_projection", 
      "attrs": {
        "eps": "0.001", 
        "fix_gamma": "False", 
        "momentum": "0.9"
      }, 
      "inputs": [[438, 0, 0], [439, 0, 0], [440, 0, 0], [441, 0, 1], [442, 0, 1]]
    }, 
    {
      "op": "elemwise_add", 
      "name": "_plus11", 
      "inputs": [[443, 0, 0], [417, 0, 0]]
    }, 
    {
      "op": "null", 
      "name": "comp_16_conv_expansion_weight", 
      "attrs": {
        "cudnn_tune": "fastest", 
        "kernel": "(3, 1, 1)", 
        "no_bias": "False", 
        "num_filter": "576", 
        "num_group": "1", 
        "pad": "(1, 0, 0)", 
        "stride": "[1, 1, 1]", 
        "workspace": "512"
      }, 
      "inputs": []
    }, 
    {
      "op": "null", 
      "name": "comp_16_conv_expansion_bias", 
      "attrs": {
        "cudnn_tune": "fastest", 
        "kernel": "(3, 1, 1)", 
        "no_bias": "False", 
        "num_filter": "576", 
        "num_group": "1", 
        "pad": "(1, 0, 0)", 
        "stride": "[1, 1, 1]", 
        "workspace": "512"
      }, 
      "inputs": []
    }, 
    {
      "op": "Convolution", 
      "name": "comp_16_conv_expansion", 
      "attrs": {
        "cudnn_tune": "fastest", 
        "kernel": "(3, 1, 1)", 
        "no_bias": "False", 
        "num_filter": "576", 
        "num_group": "1", 
        "pad": "(1, 0, 0)", 
        "stride": "[1, 1, 1]", 
        "workspace": "512"
      }, 
      "inputs": [[444, 0, 0], [445, 0, 0], [446, 0, 0]]
    }, 
    {
      "op": "null", 
      "name": "comp_16_spatbn_expansion_gamma", 
      "attrs": {
        "eps": "0.001", 
        "fix_gamma": "False", 
        "momentum": "0.9"
      }, 
      "inputs": []
    }, 
    {
      "op": "null", 
      "name": "comp_16_spatbn_expansion_beta", 
      "attrs": {
        "eps": "0.001", 
        "fix_gamma": "False", 
        "momentum": "0.9"
      }, 
      "inputs": []
    }, 
    {
      "op": "null", 
      "name": "comp_16_spatbn_expansion_moving_mean", 
      "attrs": {
        "__init__": "[\"zero\", {}]", 
        "eps": "0.001", 
        "fix_gamma": "False", 
        "momentum": "0.9"
      }, 
      "inputs": []
    }, 
    {
      "op": "null", 
      "name": "comp_16_spatbn_expansion_moving_var", 
      "attrs": {
        "__init__": "[\"one\", {}]", 
        "eps": "0.001", 
        "fix_gamma": "False", 
        "momentum": "0.9"
      }, 
      "inputs": []
    }, 
    {
      "op": "BatchNorm", 
      "name": "comp_16_spatbn_expansion", 
      "attrs": {
        "eps": "0.001", 
        "fix_gamma": "False", 
        "momentum": "0.9"
      }, 
      "inputs": [[447, 0, 0], [448, 0, 0], [449, 0, 0], [450, 0, 1], [451, 0, 1]]
    }, 
    {
      "op": "Activation", 
      "name": "activation34", 
      "attrs": {"act_type": "relu"}, 
      "inputs": [[452, 0, 0]]
    }, 
    {
      "op": "null", 
      "name": "comp_16_conv_depth_weight", 
      "attrs": {
        "cudnn_tune": "fastest", 
        "kernel": "(3, 3, 3)", 
        "no_bias": "False", 
        "num_filter": "576", 
        "num_group": "576", 
        "pad": "(1, 1, 1)", 
        "stride": "[1, 1, 1]", 
        "workspace": "512"
      }, 
      "inputs": []
    }, 
    {
      "op": "null", 
      "name": "comp_16_conv_depth_bias", 
      "attrs": {
        "cudnn_tune": "fastest", 
        "kernel": "(3, 3, 3)", 
        "no_bias": "False", 
        "num_filter": "576", 
        "num_group": "576", 
        "pad": "(1, 1, 1)", 
        "stride": "[1, 1, 1]", 
        "workspace": "512"
      }, 
      "inputs": []
    }, 
    {
      "op": "Convolution", 
      "name": "comp_16_conv_depth", 
      "attrs": {
        "cudnn_tune": "fastest", 
        "kernel": "(3, 3, 3)", 
        "no_bias": "False", 
        "num_filter": "576", 
        "num_group": "576", 
        "pad": "(1, 1, 1)", 
        "stride": "[1, 1, 1]", 
        "workspace": "512"
      }, 
      "inputs": [[453, 0, 0], [454, 0, 0], [455, 0, 0]]
    }, 
    {
      "op": "null", 
      "name": "comp_16_spatbn_depth_gamma", 
      "attrs": {
        "eps": "0.001", 
        "fix_gamma": "False", 
        "momentum": "0.9"
      }, 
      "inputs": []
    }, 
    {
      "op": "null", 
      "name": "comp_16_spatbn_depth_beta", 
      "attrs": {
        "eps": "0.001", 
        "fix_gamma": "False", 
        "momentum": "0.9"
      }, 
      "inputs": []
    }, 
    {
      "op": "null", 
      "name": "comp_16_spatbn_depth_moving_mean", 
      "attrs": {
        "__init__": "[\"zero\", {}]", 
        "eps": "0.001", 
        "fix_gamma": "False", 
        "momentum": "0.9"
      }, 
      "inputs": []
    }, 
    {
      "op": "null", 
      "name": "comp_16_spatbn_depth_moving_var", 
      "attrs": {
        "__init__": "[\"one\", {}]", 
        "eps": "0.001", 
        "fix_gamma": "False", 
        "momentum": "0.9"
      }, 
      "inputs": []
    }, 
    {
      "op": "BatchNorm", 
      "name": "comp_16_spatbn_depth", 
      "attrs": {
        "eps": "0.001", 
        "fix_gamma": "False", 
        "momentum": "0.9"
      }, 
      "inputs": [[456, 0, 0], [457, 0, 0], [458, 0, 0], [459, 0, 1], [460, 0, 1]]
    }, 
    {
      "op": "Activation", 
      "name": "activation35", 
      "attrs": {"act_type": "relu"}, 
      "inputs": [[461, 0, 0]]
    }, 
    {
      "op": "null", 
      "name": "comp_16_conv_projection_weight", 
      "attrs": {
        "cudnn_tune": "fastest", 
        "kernel": "(1, 1, 1)", 
        "no_bias": "False", 
        "num_filter": "96", 
        "num_group": "1", 
        "pad": "(0, 0, 0)", 
        "stride": "[1, 1, 1]", 
        "workspace": "512"
      }, 
      "inputs": []
    }, 
    {
      "op": "null", 
      "name": "comp_16_conv_projection_bias", 
      "attrs": {
        "cudnn_tune": "fastest", 
        "kernel": "(1, 1, 1)", 
        "no_bias": "False", 
        "num_filter": "96", 
        "num_group": "1", 
        "pad": "(0, 0, 0)", 
        "stride": "[1, 1, 1]", 
        "workspace": "512"
      }, 
      "inputs": []
    }, 
    {
      "op": "Convolution", 
      "name": "comp_16_conv_projection", 
      "attrs": {
        "cudnn_tune": "fastest", 
        "kernel": "(1, 1, 1)", 
        "no_bias": "False", 
        "num_filter": "96", 
        "num_group": "1", 
        "pad": "(0, 0, 0)", 
        "stride": "[1, 1, 1]", 
        "workspace": "512"
      }, 
      "inputs": [[462, 0, 0], [463, 0, 0], [464, 0, 0]]
    }, 
    {
      "op": "null", 
      "name": "comp_16_spatbn_projection_gamma", 
      "attrs": {
        "eps": "0.001", 
        "fix_gamma": "False", 
        "momentum": "0.9"
      }, 
      "inputs": []
    }, 
    {
      "op": "null", 
      "name": "comp_16_spatbn_projection_beta", 
      "attrs": {
        "eps": "0.001", 
        "fix_gamma": "False", 
        "momentum": "0.9"
      }, 
      "inputs": []
    }, 
    {
      "op": "null", 
      "name": "comp_16_spatbn_projection_moving_mean", 
      "attrs": {
        "__init__": "[\"zero\", {}]", 
        "eps": "0.001", 
        "fix_gamma": "False", 
        "momentum": "0.9"
      }, 
      "inputs": []
    }, 
    {
      "op": "null", 
      "name": "comp_16_spatbn_projection_moving_var", 
      "attrs": {
        "__init__": "[\"one\", {}]", 
        "eps": "0.001", 
        "fix_gamma": "False", 
        "momentum": "0.9"
      }, 
      "inputs": []
    }, 
    {
      "op": "BatchNorm", 
      "name": "comp_16_spatbn_projection", 
      "attrs": {
        "eps": "0.001", 
        "fix_gamma": "False", 
        "momentum": "0.9"
      }, 
      "inputs": [[465, 0, 0], [466, 0, 0], [467, 0, 0], [468, 0, 1], [469, 0, 1]]
    }, 
    {
      "op": "elemwise_add", 
      "name": "_plus12", 
      "inputs": [[470, 0, 0], [444, 0, 0]]
    }, 
    {
      "op": "null", 
      "name": "comp_17_conv_expansion_weight", 
      "attrs": {
        "cudnn_tune": "fastest", 
        "kernel": "(3, 1, 1)", 
        "no_bias": "False", 
        "num_filter": "576", 
        "num_group": "1", 
        "pad": "(1, 0, 0)", 
        "stride": "[1, 1, 1]", 
        "workspace": "512"
      }, 
      "inputs": []
    }, 
    {
      "op": "null", 
      "name": "comp_17_conv_expansion_bias", 
      "attrs": {
        "cudnn_tune": "fastest", 
        "kernel": "(3, 1, 1)", 
        "no_bias": "False", 
        "num_filter": "576", 
        "num_group": "1", 
        "pad": "(1, 0, 0)", 
        "stride": "[1, 1, 1]", 
        "workspace": "512"
      }, 
      "inputs": []
    }, 
    {
      "op": "Convolution", 
      "name": "comp_17_conv_expansion", 
      "attrs": {
        "cudnn_tune": "fastest", 
        "kernel": "(3, 1, 1)", 
        "no_bias": "False", 
        "num_filter": "576", 
        "num_group": "1", 
        "pad": "(1, 0, 0)", 
        "stride": "[1, 1, 1]", 
        "workspace": "512"
      }, 
      "inputs": [[471, 0, 0], [472, 0, 0], [473, 0, 0]]
    }, 
    {
      "op": "null", 
      "name": "comp_17_spatbn_expansion_gamma", 
      "attrs": {
        "eps": "0.001", 
        "fix_gamma": "False", 
        "momentum": "0.9"
      }, 
      "inputs": []
    }, 
    {
      "op": "null", 
      "name": "comp_17_spatbn_expansion_beta", 
      "attrs": {
        "eps": "0.001", 
        "fix_gamma": "False", 
        "momentum": "0.9"
      }, 
      "inputs": []
    }, 
    {
      "op": "null", 
      "name": "comp_17_spatbn_expansion_moving_mean", 
      "attrs": {
        "__init__": "[\"zero\", {}]", 
        "eps": "0.001", 
        "fix_gamma": "False", 
        "momentum": "0.9"
      }, 
      "inputs": []
    }, 
    {
      "op": "null", 
      "name": "comp_17_spatbn_expansion_moving_var", 
      "attrs": {
        "__init__": "[\"one\", {}]", 
        "eps": "0.001", 
        "fix_gamma": "False", 
        "momentum": "0.9"
      }, 
      "inputs": []
    }, 
    {
      "op": "BatchNorm", 
      "name": "comp_17_spatbn_expansion", 
      "attrs": {
        "eps": "0.001", 
        "fix_gamma": "False", 
        "momentum": "0.9"
      }, 
      "inputs": [[474, 0, 0], [475, 0, 0], [476, 0, 0], [477, 0, 1], [478, 0, 1]]
    }, 
    {
      "op": "Activation", 
      "name": "activation36", 
      "attrs": {"act_type": "relu"}, 
      "inputs": [[479, 0, 0]]
    }, 
    {
      "op": "null", 
      "name": "comp_17_conv_depth_weight", 
      "attrs": {
        "cudnn_tune": "fastest", 
        "kernel": "(3, 3, 3)", 
        "no_bias": "False", 
        "num_filter": "576", 
        "num_group": "576", 
        "pad": "(1, 1, 1)", 
        "stride": "[1, 1, 1]", 
        "workspace": "512"
      }, 
      "inputs": []
    }, 
    {
      "op": "null", 
      "name": "comp_17_conv_depth_bias", 
      "attrs": {
        "cudnn_tune": "fastest", 
        "kernel": "(3, 3, 3)", 
        "no_bias": "False", 
        "num_filter": "576", 
        "num_group": "576", 
        "pad": "(1, 1, 1)", 
        "stride": "[1, 1, 1]", 
        "workspace": "512"
      }, 
      "inputs": []
    }, 
    {
      "op": "Convolution", 
      "name": "comp_17_conv_depth", 
      "attrs": {
        "cudnn_tune": "fastest", 
        "kernel": "(3, 3, 3)", 
        "no_bias": "False", 
        "num_filter": "576", 
        "num_group": "576", 
        "pad": "(1, 1, 1)", 
        "stride": "[1, 1, 1]", 
        "workspace": "512"
      }, 
      "inputs": [[480, 0, 0], [481, 0, 0], [482, 0, 0]]
    }, 
    {
      "op": "null", 
      "name": "comp_17_spatbn_depth_gamma", 
      "attrs": {
        "eps": "0.001", 
        "fix_gamma": "False", 
        "momentum": "0.9"
      }, 
      "inputs": []
    }, 
    {
      "op": "null", 
      "name": "comp_17_spatbn_depth_beta", 
      "attrs": {
        "eps": "0.001", 
        "fix_gamma": "False", 
        "momentum": "0.9"
      }, 
      "inputs": []
    }, 
    {
      "op": "null", 
      "name": "comp_17_spatbn_depth_moving_mean", 
      "attrs": {
        "__init__": "[\"zero\", {}]", 
        "eps": "0.001", 
        "fix_gamma": "False", 
        "momentum": "0.9"
      }, 
      "inputs": []
    }, 
    {
      "op": "null", 
      "name": "comp_17_spatbn_depth_moving_var", 
      "attrs": {
        "__init__": "[\"one\", {}]", 
        "eps": "0.001", 
        "fix_gamma": "False", 
        "momentum": "0.9"
      }, 
      "inputs": []
    }, 
    {
      "op": "BatchNorm", 
      "name": "comp_17_spatbn_depth", 
      "attrs": {
        "eps": "0.001", 
        "fix_gamma": "False", 
        "momentum": "0.9"
      }, 
      "inputs": [[483, 0, 0], [484, 0, 0], [485, 0, 0], [486, 0, 1], [487, 0, 1]]
    }, 
    {
      "op": "Activation", 
      "name": "activation37", 
      "attrs": {"act_type": "relu"}, 
      "inputs": [[488, 0, 0]]
    }, 
    {
      "op": "null", 
      "name": "comp_17_conv_projection_weight", 
      "attrs": {
        "cudnn_tune": "fastest", 
        "kernel": "(1, 1, 1)", 
        "no_bias": "False", 
        "num_filter": "512", 
        "num_group": "1", 
        "pad": "(0, 0, 0)", 
        "stride": "[1, 1, 1]", 
        "workspace": "512"
      }, 
      "inputs": []
    }, 
    {
      "op": "null", 
      "name": "comp_17_conv_projection_bias", 
      "attrs": {
        "cudnn_tune": "fastest", 
        "kernel": "(1, 1, 1)", 
        "no_bias": "False", 
        "num_filter": "512", 
        "num_group": "1", 
        "pad": "(0, 0, 0)", 
        "stride": "[1, 1, 1]", 
        "workspace": "512"
      }, 
      "inputs": []
    }, 
    {
      "op": "Convolution", 
      "name": "comp_17_conv_projection", 
      "attrs": {
        "cudnn_tune": "fastest", 
        "kernel": "(1, 1, 1)", 
        "no_bias": "False", 
        "num_filter": "512", 
        "num_group": "1", 
        "pad": "(0, 0, 0)", 
        "stride": "[1, 1, 1]", 
        "workspace": "512"
      }, 
      "inputs": [[489, 0, 0], [490, 0, 0], [491, 0, 0]]
    }, 
    {
      "op": "null", 
      "name": "comp_17_spatbn_projection_gamma", 
      "attrs": {
        "eps": "0.001", 
        "fix_gamma": "False", 
        "momentum": "0.9"
      }, 
      "inputs": []
    }, 
    {
      "op": "null", 
      "name": "comp_17_spatbn_projection_beta", 
      "attrs": {
        "eps": "0.001", 
        "fix_gamma": "False", 
        "momentum": "0.9"
      }, 
      "inputs": []
    }, 
    {
      "op": "null", 
      "name": "comp_17_spatbn_projection_moving_mean", 
      "attrs": {
        "__init__": "[\"zero\", {}]", 
        "eps": "0.001", 
        "fix_gamma": "False", 
        "momentum": "0.9"
      }, 
      "inputs": []
    }, 
    {
      "op": "null", 
      "name": "comp_17_spatbn_projection_moving_var", 
      "attrs": {
        "__init__": "[\"one\", {}]", 
        "eps": "0.001", 
        "fix_gamma": "False", 
        "momentum": "0.9"
      }, 
      "inputs": []
    }, 
    {
      "op": "BatchNorm", 
      "name": "comp_17_spatbn_projection", 
      "attrs": {
        "eps": "0.001", 
        "fix_gamma": "False", 
        "momentum": "0.9"
      }, 
      "inputs": [[492, 0, 0], [493, 0, 0], [494, 0, 0], [495, 0, 1], [496, 0, 1]]
    }, 
    {
      "op": "Pooling", 
      "name": "final_pool", 
      "attrs": {
        "kernel": "(2, 7, 7)", 
        "pad": "(0, 0, 0)", 
        "pool_type": "avg", 
        "stride": "(1, 1, 1)"
      }, 
      "inputs": [[497, 0, 0]]
    }, 
    {
      "op": "null", 
      "name": "final_fc_weight", 
      "attrs": {"num_hidden": "400"}, 
      "inputs": []
    }, 
    {
      "op": "null", 
      "name": "final_fc_bias", 
      "attrs": {"num_hidden": "400"}, 
      "inputs": []
    }, 
    {
      "op": "FullyConnected", 
      "name": "final_fc", 
      "attrs": {"num_hidden": "400"}, 
      "inputs": [[498, 0, 0], [499, 0, 0], [500, 0, 0]]
    }, 
    {
      "op": "null", 
      "name": "softmax_label", 
      "attrs": {"__dtype__": "0"}, 
      "inputs": []
    }, 
    {
      "op": "SoftmaxOutput", 
      "name": "softmax", 
      "attrs": {
        "multi_output": "True", 
        "normalization": "null", 
        "use_ignore": "True"
      }, 
      "inputs": [[501, 0, 0], [502, 0, 0]]
    }
  ], 
  "arg_nodes": [
    0, 
    1, 
    3, 
    4, 
    5, 
    6, 
    9, 
    11, 
    12, 
    13, 
    14, 
    17, 
    18, 
    20, 
    21, 
    22, 
    23, 
    26, 
    27, 
    29, 
    30, 
    31, 
    32, 
    35, 
    36, 
    38, 
    39, 
    40, 
    41, 
    43, 
    44, 
    46, 
    47, 
    48, 
    49, 
    52, 
    53, 
    55, 
    56, 
    57, 
    58, 
    61, 
    62, 
    64, 
    65, 
    66, 
    67, 
    70, 
    71, 
    73, 
    74, 
    75, 
    76, 
    79, 
    80, 
    82, 
    83, 
    84, 
    85, 
    88, 
    89, 
    91, 
    92, 
    93, 
    94, 
    97, 
    98, 
    100, 
    101, 
    102, 
    103, 
    106, 
    107, 
    109, 
    110, 
    111, 
    112, 
    115, 
    116, 
    118, 
    119, 
    120, 
    121, 
    124, 
    125, 
    127, 
    128, 
    129, 
    130, 
    133, 
    134, 
    136, 
    137, 
    138, 
    139, 
    142, 
    143, 
    145, 
    146, 
    147, 
    148, 
    150, 
    151, 
    153, 
    154, 
    155, 
    156, 
    159, 
    160, 
    162, 
    163, 
    164, 
    165, 
    168, 
    169, 
    171, 
    172, 
    173, 
    174, 
    177, 
    178, 
    180, 
    181, 
    182, 
    183, 
    186, 
    187, 
    189, 
    190, 
    191, 
    192, 
    195, 
    196, 
    198, 
    199, 
    200, 
    201, 
    204, 
    205, 
    207, 
    208, 
    209, 
    210, 
    213, 
    214, 
    216, 
    217, 
    218, 
    219, 
    222, 
    223, 
    225, 
    226, 
    227, 
    228, 
    231, 
    232, 
    234, 
    235, 
    236, 
    237, 
    240, 
    241, 
    243, 
    244, 
    245, 
    246, 
    249, 
    250, 
    252, 
    253, 
    254, 
    255, 
    257, 
    258, 
    260, 
    261, 
    262, 
    263, 
    266, 
    267, 
    269, 
    270, 
    271, 
    272, 
    275, 
    276, 
    278, 
    279, 
    280, 
    281, 
    284, 
    285, 
    287, 
    288, 
    289, 
    290, 
    293, 
    294, 
    296, 
    297, 
    298, 
    299, 
    302, 
    303, 
    305, 
    306, 
    307, 
    308, 
    311, 
    312, 
    314, 
    315, 
    316, 
    317, 
    320, 
    321, 
    323, 
    324, 
    325, 
    326, 
    329, 
    330, 
    332, 
    333, 
    334, 
    335, 
    338, 
    339, 
    341, 
    342, 
    343, 
    344, 
    347, 
    348, 
    350, 
    351, 
    352, 
    353, 
    356, 
    357, 
    359, 
    360, 
    361, 
    362, 
    365, 
    366, 
    368, 
    369, 
    370, 
    371, 
    374, 
    375, 
    377, 
    378, 
    379, 
    380, 
    383, 
    384, 
    386, 
    387, 
    388, 
    389, 
    392, 
    393, 
    395, 
    396, 
    397, 
    398, 
    401, 
    402, 
    404, 
    405, 
    406, 
    407, 
    410, 
    411, 
    413, 
    414, 
    415, 
    416, 
    418, 
    419, 
    421, 
    422, 
    423, 
    424, 
    427, 
    428, 
    430, 
    431, 
    432, 
    433, 
    436, 
    437, 
    439, 
    440, 
    441, 
    442, 
    445, 
    446, 
    448, 
    449, 
    450, 
    451, 
    454, 
    455, 
    457, 
    458, 
    459, 
    460, 
    463, 
    464, 
    466, 
    467, 
    468, 
    469, 
    472, 
    473, 
    475, 
    476, 
    477, 
    478, 
    481, 
    482, 
    484, 
    485, 
    486, 
    487, 
    490, 
    491, 
    493, 
    494, 
    495, 
    496, 
    499, 
    500, 
    502
  ], 
  "node_row_ptr": [
    0, 
    1, 
    2, 
    3, 
    4, 
    5, 
    6, 
    7, 
    10, 
    11, 
    12, 
    13, 
    14, 
    15, 
    16, 
    17, 
    20, 
    21, 
    22, 
    23, 
    24, 
    25, 
    26, 
    27, 
    28, 
    31, 
    32, 
    33, 
    34, 
    35, 
    36, 
    37, 
    38, 
    39, 
    42, 
    43, 
    44, 
    45, 
    46, 
    47, 
    48, 
    49, 
    50, 
    53, 
    54, 
    55, 
    56, 
    57, 
    58, 
    59, 
    60, 
    63, 
    64, 
    65, 
    66, 
    67, 
    68, 
    69, 
    70, 
    71, 
    74, 
    75, 
    76, 
    77, 
    78, 
    79, 
    80, 
    81, 
    82, 
    85, 
    86, 
    87, 
    88, 
    89, 
    90, 
    91, 
    92, 
    93, 
    96, 
    97, 
    98, 
    99, 
    100, 
    101, 
    102, 
    103, 
    104, 
    107, 
    108, 
    109, 
    110, 
    111, 
    112, 
    113, 
    114, 
    115, 
    118, 
    119, 
    120, 
    121, 
    122, 
    123, 
    124, 
    125, 
    126, 
    129, 
    130, 
    131, 
    132, 
    133, 
    134, 
    135, 
    136, 
    137, 
    140, 
    141, 
    142, 
    143, 
    144, 
    145, 
    146, 
    147, 
    148, 
    151, 
    152, 
    153, 
    154, 
    155, 
    156, 
    157, 
    158, 
    159, 
    162, 
    163, 
    164, 
    165, 
    166, 
    167, 
    168, 
    169, 
    170, 
    173, 
    174, 
    175, 
    176, 
    177, 
    178, 
    179, 
    180, 
    181, 
    184, 
    185, 
    186, 
    187, 
    188, 
    189, 
    190, 
    191, 
    194, 
    195, 
    196, 
    197, 
    198, 
    199, 
    200, 
    201, 
    202, 
    205, 
    206, 
    207, 
    208, 
    209, 
    210, 
    211, 
    212, 
    213, 
    216, 
    217, 
    218, 
    219, 
    220, 
    221, 
    222, 
    223, 
    224, 
    227, 
    228, 
    229, 
    230, 
    231, 
    232, 
    233, 
    234, 
    235, 
    238, 
    239, 
    240, 
    241, 
    242, 
    243, 
    244, 
    245, 
    246, 
    249, 
    250, 
    251, 
    252, 
    253, 
    254, 
    255, 
    256, 
    257, 
    260, 
    261, 
    262, 
    263, 
    264, 
    265, 
    266, 
    267, 
    268, 
    271, 
    272, 
    273, 
    274, 
    275, 
    276, 
    277, 
    278, 
    279, 
    282, 
    283, 
    284, 
    285, 
    286, 
    287, 
    288, 
    289, 
    290, 
    293, 
    294, 
    295, 
    296, 
    297, 
    298, 
    299, 
    300, 
    301, 
    304, 
    305, 
    306, 
    307, 
    308, 
    309, 
    310, 
    311, 
    312, 
    315, 
    316, 
    317, 
    318, 
    319, 
    320, 
    321, 
    322, 
    325, 
    326, 
    327, 
    328, 
    329, 
    330, 
    331, 
    332, 
    333, 
    336, 
    337, 
    338, 
    339, 
    340, 
    341, 
    342, 
    343, 
    344, 
    347, 
    348, 
    349, 
    350, 
    351, 
    352, 
    353, 
    354, 
    355, 
    358, 
    359, 
    360, 
    361, 
    362, 
    363, 
    364, 
    365, 
    366, 
    369, 
    370, 
    371, 
    372, 
    373, 
    374, 
    375, 
    376, 
    377, 
    380, 
    381, 
    382, 
    383, 
    384, 
    385, 
    386, 
    387, 
    388, 
    391, 
    392, 
    393, 
    394, 
    395, 
    396, 
    397, 
    398, 
    399, 
    402, 
    403, 
    404, 
    405, 
    406, 
    407, 
    408, 
    409, 
    410, 
    413, 
    414, 
    415, 
    416, 
    417, 
    418, 
    419, 
    420, 
    421, 
    424, 
    425, 
    426, 
    427, 
    428, 
    429, 
    430, 
    431, 
    432, 
    435, 
    436, 
    437, 
    438, 
    439, 
    440, 
    441, 
    442, 
    443, 
    446, 
    447, 
    448, 
    449, 
    450, 
    451, 
    452, 
    453, 
    454, 
    457, 
    458, 
    459, 
    460, 
    461, 
    462, 
    463, 
    464, 
    465, 
    468, 
    469, 
    470, 
    471, 
    472, 
    473, 
    474, 
    475, 
    476, 
    479, 
    480, 
    481, 
    482, 
    483, 
    484, 
    485, 
    486, 
    487, 
    490, 
    491, 
    492, 
    493, 
    494, 
    495, 
    496, 
    497, 
    498, 
    501, 
    502, 
    503, 
    504, 
    505, 
    506, 
    507, 
    508, 
    509, 
    512, 
    513, 
    514, 
    515, 
    516, 
    517, 
    518, 
    519, 
    522, 
    523, 
    524, 
    525, 
    526, 
    527, 
    528, 
    529, 
    530, 
    533, 
    534, 
    535, 
    536, 
    537, 
    538, 
    539, 
    540, 
    541, 
    544, 
    545, 
    546, 
    547, 
    548, 
    549, 
    550, 
    551, 
    552, 
    555, 
    556, 
    557, 
    558, 
    559, 
    560, 
    561, 
    562, 
    563, 
    566, 
    567, 
    568, 
    569, 
    570, 
    571, 
    572, 
    573, 
    574, 
    577, 
    578, 
    579, 
    580, 
    581, 
    582, 
    583, 
    584, 
    585, 
    588, 
    589, 
    590, 
    591, 
    592, 
    593, 
    594, 
    595, 
    596, 
    599, 
    600, 
    601, 
    602, 
    603, 
    604, 
    605, 
    606, 
    607, 
    610, 
    611, 
    612, 
    613, 
    614, 
    615, 
    616
  ], 
  "heads": [[503, 0, 0]], 
  "attrs": {"mxnet_version": ["int", 10300]}
}